asl_mlp_model.pt (torch, 75549 bytes, 6 tensors)

net.0.weight f4 [128, 63]
00000000: 833e 3f3e beb9 e3bd 825d 22bd ad74 a8bd
00000010: bd0f a7be 1a60 50bd a409 7cbc 12f3 02be
00000020: dd37 f5bd 2744 a2bc dd4d 353d a216 dfbc
00000030: 37a3 17bc bba4 033f acff 023d d8b4 e2bc
00000040: ac5c 3abc b6ba 2dbd 5c46 353e fbda 003e
00000050: 4f03 703e 7c98 f23d e5c1 c03e 4689 cd3d
00000060: 886d b63e f98d e93e 1f5e a03d 6afe 10bd
00000070: e2f5 c4bd 4e7d f63d 315b 27be d4eb d3be
00000080: 4747 8f3d 6876 2abe 2727 d8be 0389 0f3e
00000090: 7beb a0bc 52ca f3be a3fb 8ebc 6981 05be
000000a0: b30c 73bc ed74 443e 354a 2b3e 1000 dcbe
000000b0: d63a ae3d 7012 8b3d 08a3 a1bc ae48 20be
000000c0: 4216 7ebe 24e6 013f 901a a4be 7f92 7b3c
000000d0: 4f96 813d f424 193e dd2b 4f3d 0c8e d6be
000000e0: 6e4e 363d d49d 5b3a cd78 2ebe 883e 313d
000000f0: 6b19 383d e8f9 343f 7034 81be 8075 12bd
00000100: b824 cb3d 9b9a 1dbe b8d5 da3e 7672 fa3d
00000110: 3a77 a2be 4496 8e3e 8938 b23d 28cd c7bd
00000120: edf8 563b 6eb1 963e f22c bcbd 1c90 42be
00000130: 0d4e a33e f915 3c3e 7c67 88bc 0435 1dbe
00000140: 7b5a 4dbe 0d0d 94bd 9644 31be fd01 4ebd
00000150: b254 10be 0e35 adbe 976c 673e 5d2d 9bbe
00000160: 151d 26bf aacd a33e 71da 1dbe 0188 2cbe
00000170: 9f65 03be ef8b ab3e 5846 493e f388 20be
00000180: 12d3 193e 2598 323e 53af 6dbe 6e6e e8bc
00000190: dc24 f43d 7422 18be b247 96be 0f68 f2bc
000001a0: 731e 203e e633 ae3e b780 cb3e fa3f cebd
000001b0: c008 7a3e a9f4 e53e a8c5 5abd 2bb9 753e
000001c0: ddc8 e73e 6907 20be ecdc 1cbe ae1d 80bd
000001d0: 3b12 993d a87c a23e bbdc 8c3e 2ec8 a13e
000001e0: 64a8 bbbd 88f1 8cbe d03b 2f3e 11fb c6be
000001f0: ce92 44bf 3c33 283d 14eb 36be 02bd b43d
00000200: e678 1cbd 3a73 58bd 959c 12be 18db 513e
00000210: 1b50 69be dfb1 823c f874 853e 8c4b bebc
00000220: 27f3 26be 6c26 a13e 988f 013f aded f6be
00000230: a658 243e 327a acbc e04a 0c3e 6f16 65be
00000240: 9778 d33e 68dd a4bb 289c c1bd 4e8c 273f
00000250: 6698 593e fa74 3b3d 5020 7a3f ae07 8d3e
00000260: 87b5 a83e 4699 873c 4e3f f93d 3177 66be
00000270: b929 97be 696c b2bd e2cb 7cbc 1636 34bf
00000280: 8467 92be 1508 a43d da1e 5fbf cbb9 bfbe
00000290: 67c7 293e 7d7e a5bd f0c6 e43d 92a0 b6bd
000002a0: f4da c1bc a669 893e 80dc d5bd 5e2e 073c
000002b0: 24dd a73e 90ee 51bd 7f6f 683d 817d 653d
000002c0: bb0c 843d 4578 ef3d ea27 ac3c a1fd 16be
000002d0: 32a4 f33d faaa 053d d851 c63c a641 a5bd
000002e0: 8802 733e 4496 b2bd 64b3 70be 9ed7 24be
000002f0: a447 00bd 1f1a 91bc 78e3 2dbd 8b11 c2bd
00000300: cbbf 8abd 7230 063f fd3a 8fbe 1d60 f73d
00000310: 1d4f c13e b827 a4bd cff3 683c 6a96 b93e
00000320: 0c49 e2bd bde9 653e 22cd 963e c8f4 e83d
00000330: ca0a 923e 29f6 d23b 9f23 92bc 49f0 efbd
00000340: 999d 7d3c 1fd3 9c3d 2c0a d4be 2703 23be
00000350: d060 bf3d 7b65 3fbf bd78 acbe 2da2 023d
00000360: 0a24 793e 8c54 bd3d 2bea ac3e 085a b23e
00000370: edb2 acbc 8ea0 613e 1443 453e a5ec 8ab8
00000380: ec27 433e aea5 d03e 9304 113e 7ca4 253e
00000390: 0bdb 9f3e 97ad 8a3d 9d08 fd3e b066 23be
000003a0: ccf3 a7be 7db1 803e c8fb 05bf c7f5 74be
000003b0: d56d 71bd 1259 ddbe ecce 40bc 613d f6bd
000003c0: f54a 993d 0cd6 0f3e e769 323f 0cd4 a0bd
000003d0: 874a 3abe 3c4d a03d 6dd6 cabe 2e4a 1cbe
000003e0: 6add 94bc 1f64 75be 567f 8fbe 919e a3be
000003f0: 3e72 d8bd cb15 04ba 91de 4f3e 12e5 f73e
0.1867619 -0.11119412 -0.039639957 -0.08225379 -0.32629195 -0.0508729 -0.015383158 -0.12788036
-0.11973546 -0.019807888 0.04426371 -0.027232472 -0.009255222 0.51423234 0.03198211 -0.027674124
-0.011374634 -0.04241439 0.17702621 0.12583534 0.23438762 0.1184549 0.3764793 0.100359485
0.3563044 0.4561613 0.07830452 -0.03539888 -0.09617211 0.12035619 -0.1634338 -0.4139086
0.06996017 -0.16646731 -0.4221737 0.1401711 -0.019643536 -0.47615296 -0.017453974 -0.13037647
-0.014834571 0.19185229 0.16727526 -0.42968798 0.08507316 0.06790626 -0.01973106 -0.15652725
-0.24813178 0.5074179 -0.32051516 0.015354752 0.06327497 0.14955503 0.05057894 -0.41905248
0.04450839 0.0008377705 -0.1703827 0.043272525 0.044946115 0.70693827 -0.2523532 -0.035756588
0.09919113 -0.15391009 0.4274118 0.12228863 -0.31731588 0.2784902 0.087021895 -0.09755927
0.003280218 0.29432243 -0.0918826 -0.19000286 0.31895486 0.18367757 -0.016650908 -0.15352255
-0.20054047 -0.07229052 -0.1731132 -0.050294865 -0.14094809 -0.3382954 0.22600017 -0.30308047
-0.64888126 0.31992847 -0.1541536 -0.16848756 -0.12831734 0.33505198 0.1965574 -0.15677242
0.15021923 0.17440851 -0.23211412 -0.02837297 0.11921093 -0.14856893 -0.29351574 -0.029590635
0.15636615 0.3402397 0.3974664 -0.10070796 0.244174 0.44913223 -0.053411156 0.23996417
0.45270434 -0.15627827 -0.1531865 -0.06255661 0.0747418 0.3173573 0.27512154 0.31598037
-0.09162977 -0.27528024 0.1711266 -0.38863423 -0.76786506 0.041064486 -0.17863113 0.08825113
-0.038201235 -0.052844264 -0.14317544 0.20493734 -0.22784464 0.015953956 0.26065803 -0.023229383
-0.16303693 0.31474626 0.5060973 -0.48228207 0.16049442 -0.021054361 0.13700438 -0.22371839
0.4130294 -0.0050312765 -0.094536126 0.6544846 0.21249542 0.045765854 0.97705555 0.27544922
0.32950994 0.016552579 0.121702775 -0.22506405 -0.2952402 -0.08712084 -0.015429469 -0.7039503
-0.285946 0.08009354 -0.8715645 -0.37446436 0.16579972 -0.08080766 0.11170757 -0.08917345
-0.023663975 0.26838416 -0.10442448 0.008250801 0.32785904 -0.0512529 0.056746956 0.056027893
0.06447741 0.116928615 0.021015126 -0.14745189 0.11896552 0.03263376 0.024208948 -0.08069162
0.23731434 -0.08720067 -0.23505932 -0.16097876 -0.03131832 -0.01771265 -0.04245326 -0.09476002
-0.06774863 0.5241767 -0.27974692 0.12078879 0.3775567 -0.08015388 0.014218285 0.3624757
-0.11049089 0.22452445 0.2945338 0.11374813 0.28523856 0.006438036 -0.017839251 -0.11715753
0.015479469 0.07657456 -0.4141401 -0.15919171 0.093446374 -0.7476422 -0.33685866 0.031892944
0.24330154 0.09244642 0.33772406 0.34834313 -0.021081412 0.22033903 0.1926387 -6.624431e-05
0.19058198 0.40751404 0.14161901 0.16176027 0.31221804 0.06771391 0.49420634 -0.15957141
-0.3280319 0.25135413 -0.5233731 -0.23921882 -0.058942635 -0.43232018 -0.011768084 -0.12023426
0.07485 0.14046496 0.69692844 -0.07852945 -0.18192492 0.07827231 -0.3961672 -0.15262672
-0.018171985 -0.23963974 -0.28026837 -0.31956914 -0.10568665 -0.0005038648 0.20299746 0.48416954

net.0.bias f4 [128]
00000000: 7854 a1bd 1afc 443c 1708 03be 7e5b b3bd
00000010: 9f24 b03d f8c7 b13d 6cc4 0f3e 6a31 643d
00000020: 560c 2b3c 57a9 65bd 8429 0f3d 69a5 4f3e
00000030: 53cb 1bbd 7764 5bbe bb5d 11be 6882 083e
00000040: 6a72 88be 9e36 fbbb 63c2 55bd 2cac c2be
00000050: 6a84 c2be 0654 6cbe 860a b0be dd31 34bc
00000060: 7a13 89be cf24 b5be 5493 ac3e 069b a7be
00000070: 91fd bb3d c7eb 9abd d1c8 34be cd72 0bbe
00000080: a437 18be caf0 98bd e269 44bd c4be 1d3e
00000090: 9c9b 0abf dff7 15be 00aa bfbe ca08 92be
000000a0: 69e6 4fbd 5ac6 f5be 01e2 42be 698d d13d
000000b0: 9431 f23b a9b0 65be 58d8 35bd 4315 29be
000000c0: 3410 dd3e f58b 89be 3584 0e3c d230 4dbd
000000d0: ad13 48be 4b39 b4be 196e a23e 8cee 243f
000000e0: eb2d 84be 3873 48be dc0f 1bbe e49b c4be
000000f0: 2d5b 38be f68e f4be b979 a5be 80b7 d5bd
00000100: abf8 a2be 1bc5 68be 22ce d2be dd34 063d
00000110: f3e3 9dbe 2a95 25bf 7fef 81bd bcf0 5f3e
00000120: 751f 3b3d 528c c53d 8bed a4be 236a 6e3e
00000130: 49f2 9fbb 7fa5 77be b9c5 f93e fd7e 0bbe
00000140: 0bf9 ee3c 7f5c 0fbe 030f dcbd 88ca b6be
00000150: 3f25 3fbe 82a1 87be 7b76 d2be f0ee 763d
00000160: 7cf2 05bf d6de e3bd 1275 b2be 1cd0 eebd
00000170: adce bcbd 9a30 d3bd 62f2 1cbe ab80 9ebd
00000180: f4d2 82be 153c 82be 8953 b3be a8f4 97bd
00000190: 9525 18bd a8bb 22bc 2994 63be b2b3 353e
000001a0: 2759 9abe 0879 77bb 0107 8bbd bf87 acbd
000001b0: 0f08 5fbe 77ad 593e 5cde 943d 653d 1e3e
000001c0: 598a 0bbe 3f64 8bbe d092 f7be a96a 6abe
000001d0: 2122 bebe 17d5 8fbe 5de1 abbd fa8c 033d
000001e0: 96f4 cfbe 35c0 dc3d deaa 35bd 537c 9cbe
000001f0: 4fbc ecbd 44e4 f9bd ffaf f1bc 0460 c7bd
-0.07877439 0.012022996 -0.12796055 -0.08757685 0.08600735 0.08680719 0.14039773 0.055711187
0.010439953 -0.0560697 0.0349517 0.20277943 -0.038035702 -0.21425043 -0.14195912 0.13330996
-0.2664979 -0.007666423 -0.052187335 -0.38021982 -0.3799165 -0.23078927 -0.3438303 -0.010998216
-0.26772672 -0.35379645 0.33706152 -0.3273546 0.09179223 -0.07564502 -0.1765473 -0.13618012
-0.14864975 -0.07467802 -0.04795254 0.15404803 -0.5414369 -0.14645337 -0.37434387 -0.2852233
-0.050756846 -0.48002893 -0.19031526 0.1023205 0.007391164 -0.22430672 -0.044395775 -0.16512017
0.43176425 -0.2686459 0.008698513 -0.050095387 -0.19538756 -0.3519996 0.31724623 0.64426494
-0.25816283 -0.19575202 -0.15142769 -0.38400185 -0.18003531 -0.4776532 -0.3231943 -0.104353905
-0.31830344 -0.2273144 -0.41172892 0.032765258 -0.30837974 -0.6468073 -0.063445084 0.21869177
0.045684297 0.096459046 -0.3221248 0.23282675 -0.0048811776 -0.24184225 0.48783663 -0.13622661
0.029171487 -0.14000128 -0.10745051 -0.35701394 -0.18666552 -0.26490408 -0.41106018 0.060286462
-0.52323127 -0.11126487 -0.34854943 -0.116607875 -0.09219108 -0.103120044 -0.15326837 -0.07739385
-0.2555157 -0.25436464 -0.3502467 -0.07419711 -0.037145216 -0.009932436 -0.22224487 0.1774433
-0.30146143 -0.003776135 -0.06788445 -0.08424329 -0.21780418 0.21257578 0.07268974 0.15453108
-0.13626994 -0.2722492 -0.48354197 -0.2289225 -0.37135413 -0.28092262 -0.08392594 0.032116868
-0.40616292 0.10778848 -0.044352405 -0.30563602 -0.115593545 -0.12201741 -0.029502867 -0.097351104

net.3.weight f4 [64, 128]
00000000: 663a a93e 4757 223d cc8b 133f 656c 22be
00000010: 5b33 43be e845 b43f 995a 0a3e 7d94 223d
00000020: 0396 76bf 231b bf3e 4ef1 933d 8fb1 2c3f
00000030: 874d e43e 78f3 843e 9dcf e7be cc42 c73e
00000040: 2b32 debe e02d a53d 2ec4 a5be 26a4 983e
00000050: 3420 1cbe 595f b5bd a74d 87bd d104 95bd
00000060: b575 493f 901c 7c3e 136b 1bbd b01d ff3e
00000070: 0f7d 1bbf 0d71 cabe 463b adbe a5ff 4d3d
00000080: 1ddd 88be 21ec 43bf e281 81bd 9624 f53d
00000090: c56d cbbd 8147 0abf ed98 10be efae fdbe
000000a0: e069 813e 6406 e9be 264a af3d 2d58 233e
000000b0: 271a 58bf 8a45 edbd 3d9e edbd 4c45 49bf
000000c0: e957 cebe 183c 143e bfc1 c33e 3fbb 1cbe
000000d0: 6c9c 073f 9b56 c53d f806 533c fc92 033e
000000e0: 01ac 2c3e 8920 eebd 1bbc 5abe 4ae8 283d
000000f0: 442f debd 4bcc 62bd 7eee d13d 63c8 923c
00000100: 2bb5 aabd 926c 143e f228 f13d de52 b53d
00000110: f4aa c23e 77e8 0abc 288d 76bf 5ccc d8bc
00000120: 083b cc3c 1ab3 ba3d 2687 f7be bd68 1f3d
00000130: 6cbb be3e 710e a4ba 390d 06bf 5d8a 20bf
00000140: 2ae4 2a3d 6007 963c f610 0dbf e9c2 2bbf
00000150: 6700 513e 4189 18bf ed60 5eb9 dca5 45be
00000160: 60c7 23be 4ba5 f7bd 7dd9 7c3e 0b91 9c3e
00000170: 2da1 de3d 95a9 a3be 507f 273e b853 82be
00000180: 7025 a0bd 16a2 c3bd ef60 26bd dfbc 2d3c
00000190: eea2 3d3e a56a 38bf 2631 c43e dd19 85be
000001a0: 6ffa 773e 1b7d 053e b994 7abd c7d7 4b3e
000001b0: ff73 a73c c529 e9be bd96 e7be be9a ffbc
000001c0: 5fff 4e3e f193 743e d4aa 7d3e 4efa ddbd
000001d0: e231 6cbe be90 9bbd ee14 4b3e ca46 8f3d
000001e0: 58fb a4be 6718 8a3f f497 27bc 008d b83d
000001f0: 4db6 483e 3554 d0be 5474 48be 20ec 20bf
00000200: ba9c 493e 8cc0 863e 35fa abbe 3b85 aa3e
00000210: 4f51 e23e c364 11be 1317 cc3e a17c 923f
00000220: 1d98 a1bd d9bd 01bf 9aae 0a3f b582 003f
00000230: 8f95 dbbe da40 8cbe 0305 a8bd 2ada 37be
00000240: 8726 0b3e 015b 073f 370e 9cbd 69ee dfbe
00000250: aa41 0fbd 21b4 533e 5477 1bbe ecef d13e
00000260: d917 643e 8d66 1dbf 5c67 df3e 698d 7fbf
00000270: 67f9 91be de8b 9d3e ddb4 d53d 83f2 dc3e
00000280: f129 003e 4ee5 eebe d166 ca3c eb52 603e
00000290: 7b52 e33d 2bb0 a93d 5b9c a43e fc45 473d
000002a0: 93f5 8f3d 898f 43be d648 0fbf a1a2 703f
000002b0: 6fc6 383e 547e 753d d2bd 9f3d da16 a0bd
000002c0: 7bcd 15bf 75c9 6fbe 16bf 8abd 7093 253e
000002d0: d3b9 70be b688 1bbd 235c 773e 69b3 66be
000002e0: f1d8 1dbf c72c 783e 8d57 88be e52b 14bf
000002f0: 119e 5d3e 91c6 d8bd 8003 733e 0d09 403e
00000300: 2fb1 0c3f e050 973e 3c69 1cbf f807 94be
00000310: 0ec4 93bf 2616 563e 5edc a8be ee79 abbd
00000320: a50c d83e 0b32 303f e74b ee3c a1ef 3f3e
00000330: 393f a4be fdbc cf3d 1e8b 95be 2ba9 62bc
00000340: 26e6 22bd c6a3 0e3e 6f23 bfbd 2cc5 e33e
00000350: 0ed7 53bf 5542 2e3d fd9e 8bbe 95f3 8abe
00000360: 2c93 a8be f465 813b 6afa 51bf 02ff 2dbf
00000370: 41aa b2bc eebe ee3e 8910 c2bb 74b7 04be
00000380: 4c56 623e 02dd 433c 045e 91bd 9cf3 56be
00000390: f8d5 6e3e 31d4 d03c 6885 c2be 4e14 d13d
000003a0: 057f 3ebf 75ad 983d a4a1 163e 0a1c 783e
000003b0: 7b37 323c dea5 063d a575 0e3d cb98 393f
000003c0: 7bb5 a13c 0317 1fbf 4df6 0cbe ff74 d23c
000003d0: 2909 08be 675c f83d 07c4 e03d bc5a 8b3e
000003e0: 7c83 383c e8c1 93be 064a 133f 0309 93be
000003f0: 245c 2bbf d65e 7abd 0ba6 213e 2ea1 2d3d
0.33052367 0.039634015 0.5763519 -0.15861662 -0.1906256 1.4083834 0.13511123 0.03969239
-0.9632265 0.3732539 0.072237596 0.6745843 0.445904 0.25967002 -0.45275584 0.3891815
-0.4339765 0.080653906 -0.32376236 0.29812735 -0.1524666 -0.08856077 -0.06606608 -0.07276309
0.7869523 0.2462027 -0.03794391 0.49827337 -0.607377 -0.39539376 -0.33834285 0.05029263
-0.26731196 -0.7653218 -0.06323601 0.11969869 -0.09933046 -0.54015356 -0.14120837 -0.49547526
0.2527609 -0.45512688 0.085590646 0.15951605 -0.84414905 -0.11585529 -0.11602447 -0.78621364
-0.40301445 0.14476049 0.38233754 -0.15305804 0.52973056 0.09635659 0.012880079 0.12849039
0.1686249 -0.11627299 -0.21360819 0.041237153 -0.10848859 -0.05537061 0.10250567 0.017917817
-0.08335336 0.14494541 0.11775388 0.08853696 0.38021052 -0.0084782755 -0.9630914 -0.026464634
0.024930492 0.09116192 -0.48345298 0.038918246 0.37252367 -0.0012516511 -0.52363926 -0.62711126
0.0417215 0.018314064 -0.55104005 -0.67094284 0.2041031 -0.5958443 -0.00021207677 -0.19301552
-0.15994024 -0.12092074 0.2469234 0.3057941 0.108705856 -0.31965318 0.1635716 -0.25454497
-0.07819641 -0.095524 -0.040619787 0.010604112 0.18519184 -0.72037727 0.38318747 -0.25996295
0.24216627 0.13036005 -0.06117699 0.19906531 0.020441053 -0.4553968 -0.45232192 -0.031201717
0.20214604 0.2388456 0.24772197 -0.108387575 -0.23065904 -0.07595967 0.19832203 0.06995924
-0.3222301 1.0788697 -0.0102291 0.090112686 0.19600792 -0.40689245 -0.19575626 -0.628603
0.19688693 0.26318777 -0.3358933 0.33304772 0.4420266 -0.14198594 0.39861354 1.1444284
-0.078903414 -0.5068031 0.5417267 0.50199443 -0.42887542 -0.27393228 -0.08204081 -0.17954317
0.13588916 0.52873236 -0.07619899 -0.4373658 -0.03497473 0.20674182 -0.15182239 0.41003358
0.22274722 -0.61484605 0.43633544 -0.9982515 -0.2851059 0.30770773 0.104348876 0.43153772
0.12516 -0.4665932 0.02470723 0.2190663 0.11099716 0.082855545 0.3215054 0.048650727
0.070292614 -0.19097723 -0.55970514 0.9399815 0.18044446 0.05993493 0.07799877 -0.078168586
-0.58516663 -0.23416694 -0.06774728 0.16169524 -0.23508386 -0.037972175 0.24156241 -0.22529377
-0.6165915 0.24235831 -0.26629296 -0.5787948 0.21642329 -0.105847485 0.23731804 0.18753453
0.5495786 0.2955389 -0.61098075 -0.2891233 -1.1544206 0.20906886 -0.32980627 -0.083728656
0.42197147 0.6882636 0.029088927 0.18743755 -0.32079485 0.101434685 -0.292077 -0.013834278
-0.039770268 0.13929662 -0.0933293 0.44486368 -0.8275002 0.042543728 -0.27269736 -0.27138963
-0.32924783 0.0039489213 -0.82022727 -0.67967236 -0.021809699 0.46630043 -0.0059223813 -0.12960607
0.22103232 0.011954548 -0.0709801 -0.20991367 0.2332381 0.025491806 -0.37992406 0.10208951
-0.74412566 0.07454959 0.14710099 0.24229446 0.010877485 0.032873027 0.034780163 0.7249877
0.019739857 -0.6214449 -0.13765831 0.025690554 -0.13284744 0.12126999 0.10974889 0.27217662
0.011261817 -0.28858876 0.57534826 -0.28717813 -0.6693747 -0.0611256 0.15785997 0.04239004

net.3.bias f4 [64]
00000000: 2e0c 853e afe3 2c3e c3c6 65bd c2c9 ed3e
00000010: 3d68 93be c219 5b3e 4140 a63d 18c2 b53e
00000020: a643 1d3e 239e 5f3e 9ceb d43d d38f b1be
00000030: c3fc 643e a51f 963e 0210 a3be f22f 50be
00000040: a9bb 233e 578f e33e f69a 6a3e bd32 b2be
00000050: 9615 393e 6309 593e 4962 583e 890b e9be
00000060: 3e5f 8f3e b365 c0bd ab8a 0abd 0252 9a3e
00000070: 05dd 38be 6e16 fdbc 9909 873c 1520 133f
00000080: 02aa d53e 7908 183f 22e7 a03e 83e6 f53e
00000090: 4d26 1a3e dc55 ca3e a122 67bc ac6f 043f
000000a0: 62f1 093f ba3f aabe 6b1e afbe 531d 1cbe
000000b0: c0fe 39be 5eef 98be 2f50 95be d7db b5bd
000000c0: 4e7b ce3e 4f0b 0abe 0f1a 3f3d 34b9 3ebe
000000d0: 811a 03bd d398 de3e a464 a6bb d5ce 8cbe
000000e0: 8daa 543e b7b6 273e 704a 07be 434d 0a3f
000000f0: efcb e63e d60c 463e 96b9 603e c393 af3e
0.25985855 0.1688373 -0.056097757 0.46442991 -0.28790465 0.21396545 0.08117724 0.35499644
0.15357837 0.21837668 0.103965014 -0.34680042 0.22362046 0.29321018 -0.3184815 -0.2033079
0.15989555 0.44445297 0.22910675 -0.34804335 0.1807464 0.21194987 0.21131243 -0.45516613
0.28002352 -0.093943976 -0.03382365 0.30140692 -0.18053062 -0.030894484 0.016484069 0.5747083
0.41731268 0.5938793 0.3142634 0.4802743 0.15053673 0.3951863 -0.014107377 0.517329
0.53883946 -0.33251745 -0.34202895 -0.15245561 -0.18163586 -0.29870123 -0.29162738 -0.08879822
0.4032845 -0.13480876 0.04665571 -0.18625337 -0.032007698 0.4347597 -0.0050779153 -0.2750155
0.20768185 0.16378294 -0.1321199 0.5402414 0.45077464 0.19340834 0.21945795 0.3429242

net.6.weight f4 [24, 64]
00000000: ef2c 75be a826 c3bf 9c40 193f 8b46 fabd
00000010: dae1 293e 7234 a4bf c9be 003e 82c6 573d
00000020: 3fb2 d13d d334 acbf e894 743e 95bb 263e
00000030: f1bb 37bf 7183 c3bc b773 b53e 57a3 48bf
00000040: 880c 5ebf 492d cd3e aa99 b83d 6437 423e
00000050: 70c0 8bbe e86f efbf e4e1 333e b993 923e
00000060: f709 1abf 0216 b1bd 7971 e2bc 711e 21bf
00000070: ab24 093e 1f8e cd3d 7f75 a33d e1bd 85bc
00000080: 073d df3e 454f d2bf 486e 2a3e 18e1 3b3e
00000090: c062 acbf e88d 283e abe2 7fbe 755e 04bc
000000a0: 47fd b5bf 6de3 313e 0579 71bf 5bee a63d
000000b0: 2e8f a73c 6d67 903e 597f 76bf a847 f93d
000000c0: f653 88bc 2b03 a7be 5dae e83d f370 8b3c
000000d0: 3a78 53bf 9e83 df3d f079 863e 8559 173e
000000e0: 895e 9a3e f7ec d9bf 2bbe a9be 31c9 00c0
000000f0: db08 cdbe 9b02 ae3d ce14 84bd 78d9 053e
00000100: d5ce 6ebf 4f7c 5a3d 17d3 b43d 4ec7 70bf
00000110: 3dd2 acbf 5711 8abc 2bf9 c3bf 38f7 adbf
00000120: 2548 a13e 1603 e73e bbdc a6bf 901d 92bf
00000130: e7bf 0b3e 4713 a9bf dba9 8cbf ad0c 333e
00000140: ebde c93e 1b40 2e3e 93d3 403e 532a 8abf
00000150: e326 d5bc 4721 973d 59b6 d2bf f99e 8a3e
00000160: 8af2 843d 504f 90bf 4727 b3be 59bf b6bf
00000170: e3ad cdbf 05e1 7fbd cf86 cabf 8cb8 ee3d
00000180: e43e 9cbf e215 c03e 6193 cdbf 8d6b 48bf
00000190: a449 7abf 9635 9dbf df91 033e 19d4 073e
000001a0: 3c18 e93d 4509 bfbf 58d0 76bf b49a f8bf
000001b0: 7c95 133e 4df1 96bf a592 97bc bc84 253c
000001c0: aaea 25bf a4de 37be 842d a7be 2a91 9fbf
000001d0: aa68 413e 6b87 b3bf 326b 3f3d 9d85 04c0
000001e0: d2f9 93bf 08a5 4e3e ac4d fc3d 9412 bf3d
000001f0: a2f5 b13e 42ca 9b3d 2154 9d3e 11f5 263e
00000200: c3f8 a0be 8cf9 94bf 1c59 803d 4c61 533e
00000210: 69bb e5be 8d76 04be 1ac6 99bf 16a2 ba3e
00000220: f2c1 1abf fa69 d4be fb03 c2bf f7ab 223e
00000230: f021 ac3e 3807 7e3e 5f8b 0cbe 45ba 01bf
00000240: b3d6 7c3e d2b0 363e 02b3 a23e d66b f6be
00000250: 2999 d4bd b5c1 d7bf d2d3 0cbf e742 cb3e
00000260: f712 41bf 579a 8cbe 4ce2 893e f971 963e
00000270: c94f 9e3d a5d3 253e 9e5b c5bf 9712 8ebf
00000280: d15e a83d d730 4cbe 0cfc 71bf 39b2 b3be
00000290: 38a8 1bbe fcb1 913e 5e6b 783e d7bf 5bbf
000002a0: 32bc a7bf 06f3 58be a17d c7be 00d9 bfbf
000002b0: f3d6 5d3e 7bc4 873e 5995 6fbf 7696 59bf
000002c0: fac7 c5bf 3124 50bf 8149 863d 7b97 06bf
000002d0: 0e0c a03e 6d19 34bf 5994 283e ad40 14bf
000002e0: 5a18 c1be 3f79 f33d 0a43 3b3e 5802 83bf
000002f0: eaed 4dbf a0ca cc3d 88db ac3e ed0e bd3e
00000300: bbdc 233f f097 953d 5c3b 73bf 1ab7 293e
00000310: 9519 26bf 0ed2 91bd 943b 0c3e 5101 6e3e
00000320: 19b1 b13d 1738 3fbf c683 29be 6dae 16bd
00000330: c3f1 253e 22ca 2c3e 50ff 19be 145e fb3c
00000340: 6462 833e a0f2 433d 2ef4 653e 7d6d 87bf
00000350: 0263 47be aadf 8abf 67c0 9f3e 0bbf aabe
00000360: b7fb f93e 0ed1 a93e 75d2 1bbe 41f7 e4be
00000370: 0067 2abf 0d68 cf3d 0fe7 a7bf ccf5 75bf
00000380: 1885 01c0 d2cf 0b3e 7062 8e3e 130a 8a3e
00000390: f8b9 893e b265 14bf 4e0c 1e3e 2f46 2c3e
000003a0: 6283 97bf 805c 5ebf 7b68 06bf a531 51be
000003b0: 3223 b23d ff93 86b9 4f95 64bf 6d90 efbe
000003c0: 4305 82bd 80e8 623e dd35 03be 7777 8b3b
000003d0: 0951 363e 3e5f c0bf 028e c33d 54d6 fbbe
000003e0: 56d8 b0bf 3e9e 243e 8c10 383d 92a1 7cbf
000003f0: d591 29be feb6 643d 4a3a 86bd d0cd 613e
-0.23942922 -1.5246172 0.5986421 -0.12220486 0.16590062 -1.2828505 0.12572779 0.052679546
0.10239076 -1.3453621 0.23884928 0.16282494 -0.7177115 -0.023866387 0.35439846 -0.78374237
-0.8673787 0.40073612 0.09013684 0.18966442 -0.27295256 -1.8706026 0.17566639 0.28628328
-0.60171455 -0.08646776 -0.027641999 -0.62937075 0.13392894 0.10036873 0.07981395 -0.016325893
0.43601248 -1.6430441 0.16643631 0.18347585 -1.3467636 0.16460383 -0.2498881 -0.008079161
-1.4217919 0.17371912 -0.94325286 0.081509314 0.020454016 0.28203908 -0.9628807 0.121718705
-0.016641598 -0.32619604 0.11361382 0.017021632 -0.82605326 0.10913776 0.26264906 0.14780243
0.3015025 -1.7025441 -0.331529 -2.0122797 -0.4004582 0.08496591 -0.06449281 0.13071239
-0.9328435 0.053341206 0.08829325 -0.94054115 -1.350166 -0.016853971 -1.5310415 -1.359107
0.31500354 0.45119542 -1.3036112 -1.1415272 0.13647424 -1.3209008 -1.0989336 0.17485304
0.39427885 0.17016642 0.18830709 -1.0794166 -0.02601952 0.07379394 -1.6461898 0.27074412
0.06491573 -1.1274204 -0.34990904 -1.4277145 -1.6068691 -0.062470455 -1.582239 0.11656293
-1.2206693 0.37516695 -1.6060601 -0.7828911 -0.97768617 -1.2281978 0.12848614 0.13264503
0.113815755 -1.4924704 -0.9641166 -1.9422212 0.14412493 -1.1792389 -0.018502543 0.010102447
-0.64811194 -0.17956024 -0.32651913 -1.2466176 0.18887582 -1.4025701 0.04673309 -2.070655
-1.1560614 0.20180142 0.12319502 0.09329715 0.34757715 0.07606937 0.30728248 0.16304423
-0.3143979 -1.1638656 0.06266996 0.20642585 -0.44869545 -0.12935849 -1.2013581 0.36451787
-0.6045219 -0.41487104 -1.5157465 0.15885912 0.33619642 0.24807441 -0.13725041 -0.5067485
0.24691276 0.17840889 0.31777197 -0.48129147 -0.103807755 -1.685599 -0.5501071 0.3969948
-0.75419563 -0.27461502 0.26930463 0.2938383 0.077300616 0.16194017 -1.5418584 -1.1099423
0.0822121 -0.19940506 -0.9452522 -0.3509691 -0.15200889 0.28456104 0.24259707 -0.858396
-1.3104308 -0.21186456 -0.38963035 -1.4988098 0.21664028 0.2651709 -0.9358726 -0.8499521
-1.5451653 -0.81305224 0.065569885 -0.5257489 0.31259197 -0.70351297 0.1646284 -0.5791119
-0.3771389 0.1188836 0.18287292 -1.023509 -0.80441153 0.09999585 0.3376124 0.3692545
0.6400868 0.073043704 -0.9501245 0.16573754 -0.64882785 -0.07120143 0.13694602 0.2324269
0.08676357 -0.7469496 -0.16554174 -0.03678744 0.16205506 0.16873983 -0.150388 0.030684508
0.25661004 0.047838807 0.22456428 -1.0580288 -0.19471362 -1.0849507 0.3120148 -0.3334888
0.48824856 0.3316731 -0.15217002 -0.4471989 -0.66563416 0.10127268 -1.3117388 -0.9607818
-2.0237484 0.13653496 0.27809477 0.2696081 0.26899695 -0.57967675 0.15434381 0.16823648
-1.183697 -0.86859894 -0.52503175 -0.20429094 0.08698119 -0.00025668737 -0.89290327 -0.46789876
-0.0634866 0.22159004 -0.12813516 0.0042561847 0.1780435 -1.5029066 0.0954857 -0.49186957
-1.381602 0.1607599 0.044937655 -0.98684037 -0.16559537 0.055838577 -0.065540865 0.22051167

net.6.bias f4 [24]
00000000: a888 1fbd d8e1 41bd 20e2 dcbb 65be 863d
00000010: a6e8 e7be cb9b fe3e ea8d 5bbf b254 93be
00000020: 709e 0a3e f019 3a3e e2ef c93e 5e1e 523f
00000030: 7d62 27be 03da 9a3d 5c77 3ebe fc04 7d3e
00000040: 6006 3e3e cbbc 0fbf 1273 74bf 1c10 ea3e
00000050: ed1a 033e 8096 2dbe df4b 67be 16ef 30bf
-0.038948685 -0.047334522 -0.0067408234 0.065792836 -0.45294684 0.49728236 -0.8576342 -0.28775555
0.13537002 0.18173957 0.3944083 0.82077587 -0.16346164 0.07561114 -0.1860022 0.24708933
0.1855712 -0.5614745 -0.95488083 0.45715415 0.1280324 -0.16951942 -0.22587536 -0.69114816
