asl_mlp_model.pt (torch, 75549 bytes, 6 tensors)

net.0.weight f4 [128, 63]
000000 1e 0f e8 bd a2 f9 bd 3d a6 3b 7f bd b9 f6 f3 3d
       -0.113310084 0.09276129 -0.062312745 0.11912293
000010 88 bf 5f bd b7 b2 62 be b4 fb 96 3e 5f 6f 5b 3e
       -0.054626018 -0.22138487 0.2948891 0.21429203
000020 d9 db 51 be 5a 9c 84 3e ef 50 96 3e 23 77 30 be
       -0.20494021 0.25900537 0.29358622 -0.17232947
000030 d5 fd c8 3e 8b 13 e7 3e a7 8e a6 be 7a 80 21 be
       0.39256158 0.45132098 -0.3253071 -0.15771666
000040 7a 24 3e bd e6 0d b2 3e 51 92 cc bd be 63 27 3d
       -0.046421506 0.3477623 -0.09988845 0.040866606
000050 3e 90 f7 3e 38 5b 3c 3e 54 a3 b9 be bc d9 85 3e
       0.48352236 0.18394172 -0.36257422 0.2614268
000060 b4 e5 27 3e f1 95 4a bf 40 f2 56 3e 00 a8 99 be
       0.16396219 -0.7913504 0.20990849 -0.30010986
000070 68 ee 47 3d ad d4 02 3e cd 06 ee bd 54 a4 5c 3e
       0.048811346 0.12776442 -0.11622391 0.21547061
000080 8f aa 0f 3e c0 ef 14 bd ee 9a d1 3d 8a 0c 43 3e
       0.14029907 -0.036361456 0.102346286 0.19047752
000090 ae ee 78 3e 12 fc b6 3e 18 a8 8b 3e 5e 7e de be
       0.24309799 0.3573919 0.27276683 -0.43455786
0000a0 cf 31 97 3d 0c 1a 85 3e 4b 1c 86 3d 2e 75 3d be
       0.07382547 0.25996435 0.06548365 -0.18501732
0000b0 9e 9a d6 bc 9c 6b af 3d 4c fe 10 be f0 7b a5 3d
       -0.026196774 0.08565447 -0.14159507 0.0808028
0000c0 7f 98 af 3d 95 f6 8d 3d 6b f6 00 3e ef e8 87 be
       0.08574008 0.069317974 0.12594001 -0.26544902
0000d0 ee f4 f7 3d 75 f2 71 3d c8 5d c9 bd ed 43 19 be
       0.121072635 0.059069116 -0.098323405 -0.14967318
0000e0 c7 75 6b be 30 d0 08 3e a1 11 31 be b4 b4 40 be
       -0.22994147 0.13360667 -0.17291881 -0.18818933
0000f0 ce e5 10 3e 82 86 9e 3d ad e1 58 be 40 2d e4 3c
       0.14150164 0.07740499 -0.21179838 0.027853608
000100 a8 f4 bd bc ce 84 e5 3d 52 a9 ab be 47 28 10 3e
       -0.02318795 0.11206971 -0.3352762 0.14077865
000110 b4 cb 50 3d cb a7 07 bf 4e c6 da 3c 71 6e 73 3d
       0.050975516 -0.52990407 0.026705887 0.059431497
000120 97 23 b1 be ad f3 72 3e 63 19 80 3d b8 b8 86 be
       -0.34597465 0.23725767 0.06254842 -0.26312804
000130 ac 2a 1e 3f 15 9a c8 bc 1e 5c da be 27 72 51 bd
       0.6178386 -0.024487535 -0.42648405 -0.051134255
000140 35 d5 69 bb de c2 da be 3c 26 6c be c3 3a 04 bd
       -0.003568006 -0.42726797 -0.2306146 -0.032282602
000150 64 f8 b1 be 80 f7 d0 bd 0c 7f c1 3c 9f ee 1d be
       -0.3475982 -0.10203457 0.023620151 -0.15423058
000160 9d 88 a8 bd 69 ce 46 be 64 47 9c be 39 4d 47 bd
       -0.08229182 -0.19414677 -0.30523217 -0.04865763
000170 3e 88 d1 bd 0d 04 ac be 8e 2a bc bd 63 9f ae bc
       -0.10231064 -0.3359684 -0.09187804 -0.021316236
000180 70 e1 c3 be 82 cb d2 ba 82 7c a9 bd 51 d3 8b be
       -0.38257933 -0.0016082379 -0.08275701 -0.2730966
000190 89 50 17 be 8f ee 1e 3d 5e e3 1e bc 20 2b cf bc
       -0.14776815 0.038801726 -0.009697763 -0.025289118
0001a0 9b 9a 04 be f3 f3 f8 3d 65 06 1a bd 51 3c 2a 3e
       -0.12949602 0.121559046 -0.037603755 0.16624571
0001b0 5a 20 a2 bd 32 fb 8a bd 6c 23 39 bb bf 57 bc 3d
       -0.07916327 -0.06786193 -0.0028249873 0.09196424
0001c0 31 fb ad be 33 5d f6 bd 9c 37 29 3e ea 26 f5 bd
       -0.33980706 -0.12029495 0.1652512 -0.11970313
0001d0 81 49 20 be 3c f7 89 3e d4 fd fb bc 3c 99 a8 3d
       -0.1565304 0.26946437 -0.030760683 0.08232352
0001e0 84 5c 9c 3e 2f ee 57 3d 81 af 32 bd 7b ff d0 3e
       0.30539334 0.052717384 -0.043624405 0.40819916
0001f0 54 5c 8e bd f9 92 b7 bd bc b2 0c 3d 0c fc 72 3d
       -0.06951204 -0.0896358 0.034350142 0.059322402
000200 80 31 d1 ba d0 f0 b9 3d 38 e7 0a 3f c5 af 81 bd
       -0.0015960187 0.090791345 0.5425906 -0.063323535
000210 f0 d3 48 3e e1 f1 c7 3e ca 45 87 3d 8b 4d 07 3e
       0.19612098 0.39051726 0.06605108 0.13213174
000220 e9 cd 1b be 14 40 cc bd 64 ae f9 be 54 53 e5 be
       -0.15215267 -0.099731594 -0.48765862 -0.44790137
000230 2a 15 78 bc a8 1e 1a 3d 7e 09 bc bd b1 8f c6 3e
       -0.015141765 0.037626892 -0.09181498 0.38781503
000240 93 20 0e be 02 33 8a bc 38 c8 e2 3d fa b9 46 be
       -0.13879614 -0.016870026 0.11073345 -0.19406882
000250 a5 bb 10 bc 66 84 7d 3d 5a 12 26 be 8a cd 8f bd
       -0.0088338 0.061893843 -0.16217938 -0.07021625
000260 87 15 4e 3e dd 26 5c 3e 86 e2 02 3c d2 58 8f 3e
       0.201254 0.214992 0.007988578 0.27997452
000270 58 58 64 3e 95 58 14 be 00 e7 ac 3d 53 97 31 3e
       0.22299325 -0.14486916 0.08442497 0.17342882
000280 bd 35 cc 3d 18 d5 eb 3d 47 35 0d 3e 31 be a8 3e
       0.09971187 0.11515254 0.13789855 0.32957605
000290 c1 09 32 3d bf 9b be bd e1 2d 21 bd cc 90 ed 3e
       0.043466333 -0.0930705 -0.039350394 0.46399534
0002a0 27 d9 f8 3c d7 9c b3 be 26 c2 12 bd 86 ea d1 3d
       0.030376984 -0.35080597 -0.035829686 0.1024981
0002b0 10 5e 01 3e d1 8c 25 be ba bb 2f 3d 46 91 3b 3f
       0.12633538 -0.16166998 0.04290364 0.73268545
0002c0 61 f5 71 bd 22 c3 5a be 8f 55 3f bd 54 6b c3 3e
       -0.059071902 -0.213635 -0.046712454 0.38167822
0002d0 34 ca 02 bd eb ef d0 be 07 e9 9c 3d 4b b0 f3 bc
       -0.031931117 -0.40808043 0.07661634 -0.029747149
0002e0 ea 0b 7f be a9 62 d8 bd 12 8e 90 be 6c 31 dc bd
       -0.24906889 -0.10565693 -0.2823339 -0.10751614
0002f0 60 dc 09 bd 90 5e 60 3d df 54 af bd cc 0a 44 bd
       -0.03365743 0.05477768 -0.0856111 -0.04786186
000300 52 ec 3b 3e 91 0d 70 3e 2f 2a b7 bd 20 62 9e 3e
       0.18351868 0.23442675 -0.08943593 0.30934238
000310 38 6e a5 3e 93 03 e1 3c 76 47 8f 3e 3d 4c 17 3e
       0.32310653 0.027467525 0.27984208 0.14775176
000320 3f 98 06 3e 9e 5e a1 3e 65 e8 a9 3d 0e fd 08 3e
       0.13144015 0.315175 0.08296279 0.13377783
000330 79 c9 6c 3d fb 1d 84 bd 4b 89 d0 bd 3f c3 d7 bd
       0.057809327 -0.06451031 -0.101824366 -0.10535287
000340 0c 9a ae bd f6 07 61 bd 04 a3 b5 be 71 56 a8 be
       -0.08525476 -0.054939233 -0.35475934 -0.3287845
000350 79 fa 97 bd d6 d0 c7 be 42 55 ab be 47 03 58 bd
       -0.07420821 -0.39026517 -0.33463484 -0.0527375
000360 e3 60 16 3e ac f1 60 be d5 19 74 3c 8a 34 40 3e
       0.14685397 -0.2196719 0.014898737 0.18770042
000370 ed b0 a9 3e 93 58 4e be 7c 66 97 3d 09 ad 03 3f
       0.33142796 -0.20150976 0.07392594 0.51435906
000380 a0 61 11 be ca b9 20 bd 47 59 eb 3e 58 77 c8 bd
       -0.14197397 -0.039239682 0.4596655 -0.09788388
000390 fd ca 99 bb 1a 15 8b 3b e3 71 c3 3d a5 94 03 bc
       -0.0046933875 0.004244459 0.095432065 -0.008031045
0003a0 cc 82 ea 3e 72 f8 c1 3d cf 7e bb 3d 0d dc 00 bc
       0.45802915 0.09471215 0.09155046 -0.007864964
0003b0 34 70 51 3d 92 8c 88 3e 0f 7f fe be c2 09 bd 3e
       0.051132396 0.26669747 -0.49706313 0.36921507
0003c0 f9 4c a8 bd cb 50 0b bd 61 d2 85 3d 81 76 b1 bd
       -0.08217806 -0.034012597 0.06534267 -0.08665181
0003d0 65 01 02 3f 1f 80 68 b9 1a 70 15 be a8 1c 0d be
       0.5078338 -0.00022172973 -0.14593545 -0.13780463
0003e0 5f 80 0d 3e 4b b0 09 bf a0 bd 76 bf df d4 fd 3b
       0.13818501 -0.53784627 -0.96383095 0.0077463235
0003f0 56 c9 a3 bd 00 f4 a6 3a 9a a7 5b bd 7f c1 8a bd
       -0.07997386 0.0012737513 -0.053626634 -0.06775188

net.0.bias f4 [128]
000000 41 f3 9c be 64 78 51 bd bd 77 9c be c1 be 90 3b
       -0.30654338 -0.051140204 -0.30560103 0.004417271
000010 ee ed 51 be 56 1b f6 be 3c 49 df be 16 07 90 be
       -0.20500919 -0.4806773 -0.4361056 -0.28130406
000020 be 29 a7 be 8e 2f 17 be fd d8 45 be 41 8f d4 3c
       -0.32649034 -0.14764234 -0.19321056 0.025947215
000030 5d 82 70 3d 8e f1 57 3c 4a 76 b6 3d 34 52 9e bb
       0.058718074 0.01318015 0.089092806 -0.0048315767
000040 c5 68 c6 be c0 b2 30 bd 02 0b 6f be 34 98 68 be
       -0.38751808 -0.04313922 -0.23344043 -0.22714311
000050 cd 0d 83 be da 03 86 bd 64 9a 36 bd 08 a1 48 be
       -0.25596467 -0.065437034 -0.044580832 -0.19592679
000060 66 4f 90 3e 39 b1 e5 be ad 5c a7 bd ed 5d a2 be
       0.28185576 -0.44861773 -0.081719734 -0.31712285
000070 17 f7 09 be 08 78 19 3d 3d 59 d4 bd f3 5f 06 3e
       -0.13473164 0.037467986 -0.10368583 0.13122539
000080 82 1a 1c 3e 66 dc 82 be c9 54 94 be ca ab aa be
       0.15244487 -0.25558776 -0.28970936 -0.3333419
000090 f4 e6 77 bd a2 37 8a bd d2 73 c2 bc 99 7c bc bd
       -0.06052299 -0.06748892 -0.023736868 -0.092034526
0000a0 8f c8 97 be 92 d9 a7 3e 31 09 3d be f9 e4 fa 3d
       -0.29645202 0.3278318 -0.18460537 0.12250704
0000b0 3c 46 5c be db cc ce 3d 31 2e 77 be aa 3c 7d bd
       -0.21511167 0.10097667 -0.24138714 -0.061825432
0000c0 99 c2 5c be ab e3 d0 be d3 29 3c 3d c7 c4 fb 3d
       -0.21558608 -0.40798697 0.045938324 0.12293392
0000d0 35 8e 35 bd 1b 3c a8 bd 8e 4c 0e be 42 4e 84 bc
       -0.044325072 -0.08214589 -0.13896391 -0.016150597
0000e0 8d 17 1c be ee db 91 be 52 85 41 be a9 00 cc 3e
       -0.15243359 -0.28488106 -0.18898514 0.39844254
0000f0 6c 52 e0 bd d6 5b b9 be c5 f6 70 3d b9 47 d5 3c
       -0.10953221 -0.36202878 0.058829088 0.026035177
000100 d4 51 1b bf ea 4c f2 bd 54 78 99 be 07 53 6c be
       -0.60671735 -0.118310764 -0.29974616 -0.23078547
000110 19 2d a6 be 1e 07 1c be a5 55 7d be 83 ad c6 be
       -0.32456282 -0.1523709 -0.24739702 -0.38804254
000120 e9 f4 65 be 4a 34 70 be be ac ca 3b c1 e0 bc bd
       -0.22456707 -0.23457447 0.0061851433 -0.09222556
000130 e3 5e a0 3d 9a eb 06 be ba 1d ce be 84 0f d7 3c
       0.07830598 -0.13175812 -0.40257055 0.026252516
000140 18 a6 a0 bd ed bf a1 bd 2f 48 d2 be 59 0a ba 3e
       -0.0784418 -0.07897935 -0.41070697 0.3633602
000150 ec bb 4d bd 89 be 91 be 6e 9f 75 bd 4e 3e 5c be
       -0.050228044 -0.2846568 -0.059966497 -0.21508142
000160 63 38 c5 3c fd ba 4b be 6b 37 ac 3e 41 4d 0f be
       0.024074739 -0.19895549 0.3363603 -0.13994314
000170 2f 0a 3b be a5 db 0e 3e 4b e5 6c 3e 18 83 fd be
       -0.18265603 0.13950975 0.23134343 -0.4951408
000180 bb c6 89 3d 12 94 af be 22 84 9c be 9c 8f a0 bc
       0.06727358 -0.34292656 -0.3056956 -0.019599728
000190 06 d3 d8 3d 49 bd a4 3e 75 b9 96 3d ce 61 dc 3d
       0.105871245 0.32175663 0.07359592 0.10760842
0001a0 93 3b 33 be d2 d9 b6 be c2 28 bd be 5b 5c 01 3e
       -0.17503195 -0.3571306 -0.36945158 0.12632887
0001b0 9c 48 88 be b7 32 50 be 84 98 39 be ee fa 68 3e
       -0.26617897 -0.20331846 -0.18124586 0.22751972
0001c0 80 95 8b be 27 4e 9d be 6e 65 53 3e d0 b2 91 be
       -0.27262497 -0.30723688 0.20644161 -0.28456736
0001d0 fa 9d 6e 3d 54 9b 36 be 25 8d 8b be d6 12 ac bc
       0.058256127 -0.1783269 -0.27256122 -0.021005075
0001e0 0e 21 4e be bb f9 0d be 2d 6f cd bd e9 19 3c be
       -0.20129797 -0.13864796 -0.10030971 -0.18369259
0001f0 cc 38 2a be ab 46 3d 3c d4 02 43 be 2e 48 b7 bd
       -0.16623229 0.011552493 -0.19044048 -0.08949314

net.3.weight f4 [64, 128]
000000 16 ea b5 be a7 76 df 3d d2 63 5a 3d e5 4e 92 be
       -0.35530156 0.10911303 0.053317852 -0.28575817
000010 eb 84 84 3d 2e 41 fd 3d 91 3c 0a be 53 a4 e8 3e
       0.064706646 0.12365948 -0.13499667 0.4543787
000020 d0 1c 9b 3d 04 a9 86 be 51 69 26 bf d0 5a c5 3c
       0.07573855 -0.26300824 -0.6500445 0.024091154
000030 3b 4a 12 bf 09 f0 fc 3d 96 59 bc bc 21 c1 2c bf
       -0.57144517 0.123504706 -0.022991937 -0.6748219
000040 77 f2 9a bc ae 47 23 3f 69 9a df 3e 14 22 0b 3d
       -0.018914444 0.6378125 0.43672493 0.033968046
000050 6d ea 3f 3d fc af a5 be eb 4a aa bd 77 fa 98 3e
       0.046854425 -0.32360828 -0.08315071 0.2987859
000060 f4 b3 14 bc 71 1e 38 3e b9 c9 29 be 5e 19 0f bd
       -0.009076107 0.17980362 -0.16580857 -0.0349363
000070 df cd 8b be 67 af 0a bf 0a 7c f8 be 00 85 87 bf
       -0.27305505 -0.5417389 -0.48532134 -1.0587463
000080 18 5f 08 3d f1 f6 11 bf 6a 89 61 3f 37 c2 de 3e
       0.033293813 -0.5701743 0.881003 0.4350755
000090 fa b5 03 3f 40 83 51 bd 09 6b 4e be c3 e2 a8 3e
       0.5144955 -0.05115056 -0.20158018 0.32985505
0000a0 8b 4a 5f be a4 97 a3 3e c3 c2 e8 3e 52 b9 a3 3e
       -0.2180578 0.3195163 0.4546109 0.31977326
0000b0 d7 5f e1 be 52 66 49 bf a9 b9 dc 3e 39 5e 71 bc
       -0.44018432 -0.78671753 0.43110397 -0.014731937
0000c0 ce ef 67 be 69 c2 de bc 46 38 fd be 60 09 d0 3d
       -0.22650072 -0.027192311 -0.49456996 0.10158038
0000d0 4e aa 63 be 19 bb 20 bd 03 ff e8 bd 80 19 03 3e
       -0.22232935 -0.03924093 -0.113767646 0.12802696
0000e0 98 7a 9c 3d 20 1a c1 bd a8 56 b4 3e cc 93 2b 3d
       0.076405704 -0.09428811 0.35222363 0.041888997
0000f0 fb f0 0a 3e 6b a8 39 3e c9 e8 3f 3e 2a 4d a9 3d
       0.13568489 0.18130653 0.18741144 0.08266671
000100 38 3c c5 be 6c 6c d4 bd a7 f1 bf bc 4e 9b cd bd
       -0.38522506 -0.10372242 -0.023430659 -0.10039388
000110 12 78 22 bd 97 25 ff bc 6a 17 bd 3d 05 9c e4 bd
       -0.03966529 -0.031145854 0.092329815 -0.11162571
000120 82 72 e8 3d b0 93 7a 3b 47 81 5a be 7d a9 ca be
       0.11349966 0.0038235001 -0.21338378 -0.39582434
000130 d0 fa b7 3d 33 b0 77 3e 1e 50 23 3e a7 46 aa bd
       0.089833856 0.24188308 0.15948531 -0.08314257
000140 b6 b4 94 3e a7 04 0c 3c 65 ab 52 3e 7a 73 69 bd
       0.29044122 0.008546031 0.20573194 -0.056994893
000150 fd ae 3b bd 40 24 bd 3d 95 55 07 be bd 68 98 3d
       -0.04582118 0.0923543 -0.1321624 0.07441852
000160 60 10 45 3e 40 25 a1 be 77 06 00 bf e6 e6 08 3f
       0.19244528 -0.31473732 -0.50009865 0.53477323
000170 20 a3 e5 be 91 1b 80 3e 3a 80 3d bf 7c 3f 4f 3e
       -0.44851017 0.25021031 -0.74023783 0.20239061
000180 22 4b 9c 3e 75 69 60 3d 46 61 bd bd 45 c6 d8 3e
       0.30526072 0.05478807 -0.09247069 0.42338768
000190 9d 5f aa bd 66 2b 07 3f 65 d8 f1 3e 12 89 85 3e
       -0.08319018 0.52800596 0.47235408 0.2608114
0001a0 1e c2 24 be 0f 9a e3 bb 8b 39 78 3e 1b 2a 92 bd
       -0.16089675 -0.0069458554 0.24240701 -0.07136937
0001b0 c7 21 dc 3e 8e 01 05 be f9 61 f6 be 65 dc bf be
       0.4299452 -0.12988874 -0.48121622 -0.37472835
0001c0 7c 25 15 3d bb 9d a8 3e a6 c2 8c bd f7 42 bc bd
       0.0364127 0.3293284 -0.06873064 -0.0919246
0001d0 8a 90 f5 be 83 8f 09 bf 90 ab 27 bd 46 39 96 3d
       -0.47961837 -0.53734607 -0.0409351 0.07335143
0001e0 42 78 53 bd 34 6f b1 be 1e 67 3c be fb c5 eb bd
       -0.05162836 -0.34655154 -0.18398711 -0.11512371
0001f0 69 51 a8 be 8b db 96 3e a4 eb c6 3e a8 9f 10 bf
       -0.3287461 0.29464373 0.38851655 -0.56493616
000200 2f 8d a5 3c a8 9f d3 3d b0 00 b0 3e c2 08 1d be
       0.020208923 0.103331864 0.34375525 -0.15335372
000210 25 ad 1f be df 71 ca be 2c a4 95 3c 2f f1 20 be
       -0.15593393 -0.39540002 0.01826676 -0.15717004
000220 3d 56 98 3e 36 d7 8e 3e 6d 2f b4 bd 45 92 78 3e
       0.29753295 0.27898568 -0.08798108 0.24274547
000230 b7 99 bf bd 28 74 e9 be d4 17 aa 3e 7c 27 bb be
       -0.09355491 -0.45596433 0.33221304 -0.36553562
000240 19 36 69 be 33 65 ee 3e 51 a3 7d 3e e7 b9 68 3d
       -0.22774543 0.46561584 0.24769332 0.056817915
000250 1e 70 ed 3d 16 ad 9c 3e 84 3e 32 3f 61 f9 9a 3e
       0.1159365 0.30600804 0.6962664 0.30268386
000260 09 85 68 3e 29 5e d2 3e 26 38 17 3d 49 97 6f 3e
       0.22706999 0.41087463 0.03691878 0.23397554
000270 5f a3 9d be 9d de 3c 3c 3b ca ef 3b 88 0a c7 3e
       -0.30788705 0.0115276845 0.007317809 0.38875222
000280 2e aa ef bd 7c de 04 3f f6 d6 45 3e 1c e9 30 be
       -0.11702381 0.51901984 0.19320282 -0.17276424
000290 0c 05 70 bc 0e 08 ad 3e b2 86 39 3d 93 bd a9 3e
       -0.014649641 0.33795208 0.04529447 0.33152446
0002a0 d1 2c 2a bf c6 f6 21 bf eb 85 7a 3e 61 05 55 bd
       -0.66474634 -0.6326717 0.24465148 -0.052007083
0002b0 2d bd 1b 3f 08 c6 d0 3e 82 82 48 bc d0 0d 3f 3e
       0.60835534 0.40776086 -0.012238147 0.18657613
0002c0 c6 f2 78 be f9 c4 30 3e f1 82 05 bf 6c 8b b3 3e
       -0.2431136 0.17262639 -0.52152926 0.35067308
0002d0 cd d3 56 3e 35 c6 00 3f 0c c7 dd bc 80 42 ef 3e
       0.20979233 0.5030244 -0.027072452 0.46730423
0002e0 38 da b9 3e b3 4c d0 3d 6a f8 a7 3e 57 78 00 bb
       0.362993 0.10170879 0.32806712 -0.0019602978
0002f0 b9 72 a8 bd f0 4b b7 3e ed cb a4 3d d0 4f 78 3e
       -0.082250066 0.35800123 0.08046708 0.24249196
000300 a3 ad ca bd 17 51 fe bc 98 56 18 3f c0 4e 37 be
       -0.098964 -0.031044526 0.5950713 -0.17901134
000310 86 d3 17 be 63 51 89 3d 22 6a 59 3d a0 a9 af bb
       -0.14826784 0.067049764 0.05307973 -0.005360797
000320 00 9f ee 3c 26 04 50 be c5 f2 bc bc 3f 3e 41 3e
       0.029128551 -0.20314083 -0.02306498 0.18871401
000330 5c ec 98 3d 10 fe e1 bd 8e f2 7b 3f 2b 32 5c bd
       0.07466957 -0.11034787 0.98416984 -0.05375878
000340 ea 36 8d b9 2a 16 15 bc a3 d5 70 be b1 0a 38 bc
       -0.0002693453 -0.009099523 -0.23518996 -0.011233018
000350 4d 3c ea bd b2 c8 21 3e b3 22 65 be cd 1b 0a 3f
       -0.11437283 0.15799215 -0.22376518 0.5394867
000360 fc fc 1d bd e9 b3 1e be 55 b0 15 3d b0 12 df bd
       -0.038571343 -0.15498318 0.036545116 -0.10892236
000370 1f 69 0d 3e b6 be 61 be e8 7a e2 be b9 33 1c bc
       0.13809632 -0.22045407 -0.44234395 -0.009533816
000380 4c 05 aa 3d 05 36 b4 3e 63 13 03 3f 29 ee 02 ba
       0.083017915 0.35197464 0.51201457 -0.0004994595
000390 40 8c 5b be 17 f5 20 bf 63 56 15 be b8 51 2a be
       -0.2144022 -0.6287398 -0.14583735 -0.16632736
0003a0 30 bf 84 3c 8b 9d 2f bd 3f f3 a5 3e e1 7a 86 be
       0.016204447 -0.042874854 0.32412145 -0.26265624
0003b0 5b 59 1b be 25 db cd 3e 07 1a 39 3e 93 92 fe bd
       -0.15170805 0.40206257 0.18076335 -0.124303006
0003c0 87 e1 fe 3d d0 60 6c 3e de 7e f0 3e 2b 09 b7 3d
       0.1244536 0.23083806 0.46971792 0.089372955
0003d0 b7 21 28 3e c8 31 c4 3e 10 8f b0 3e 14 06 cd 3e
       0.16419111 0.3831923 0.34484148 0.400437
0003e0 34 ee d3 3e 99 e8 b4 bd c4 0a 1b be 34 95 28 bd
       0.41392672 -0.08833427 -0.15140826 -0.041157916
0003f0 6c 3b 92 3d 9a 84 91 3e 45 92 24 be 97 04 5b be
       0.0714024 0.2842148 -0.16071422 -0.2138847

net.3.bias f4 [64]
000000 7a 03 df 3e 11 da f5 be 02 ec ec bd bd 70 ed 3e
       0.4355734 -0.48017934 -0.115684524 0.46375075
000010 27 04 5f 3e 14 09 fc 3d e4 f7 d2 3e fa 9c c0 bd
       0.21778928 0.12306419 0.4120475 -0.09404941
000020 36 8c 98 3e 94 fc 62 3e 19 de 79 3d 40 70 b3 3d
       0.29794472 0.22166663 0.061002824 0.08761644
000030 d5 4c 5a bd 18 f5 e9 3d 9a 3f 76 3e 70 b4 cf 3e
       -0.05329593 0.11423701 0.240477 0.4056735
000040 87 5b ce 3e 17 7f ce 3e af 76 d3 3d f2 b9 75 3b
       0.40304205 0.40331337 0.103253715 0.0037494865
000050 bd 99 02 be 2c 60 af 3e 42 74 24 be 30 4e 8b 3e
       -0.12753959 0.3425306 -0.16059974 0.2720809
000060 ad ed 00 3d 52 f8 fb bd 8a ae 2e 3d 14 63 63 3d
       0.031476665 -0.12303223 0.042646922 0.05551441
000070 bc ed 55 3e e2 c0 05 3e ca 35 d9 bc 2f 41 1e 3d
       0.2089147 0.1306186 -0.026514906 0.038636383
000080 ae d7 76 be 3e b3 f5 3b bf e5 46 3e 5b ae 7e be
       -0.24105713 0.007498174 0.19423579 -0.24871199
000090 0d 21 24 be ac d4 71 3d 60 c8 2a bd 3f 3f be 3e
       -0.16028233 0.05904071 -0.041695 0.37157628
0000a0 92 ef 40 bd ae 40 8e 3e 39 ac e6 3e 1b c6 6c 3e
       -0.047103472 0.27783722 0.4505327 0.23122446
0000b0 f1 b0 eb bd 11 88 c1 be 1a ee 0b 3f 4b a4 a9 3e
       -0.11508358 -0.37799123 0.5466019 0.33133158
0000c0 07 23 9c 3c 38 25 9f 3e a5 60 10 3f cf 39 f9 bd
       0.019059671 0.31083083 0.5639747 -0.12169229
0000d0 1d 60 3f 3e 50 63 ad bd 47 de 96 3e c7 c8 46 3e
       0.18689008 -0.08466208 0.2946646 0.19412528
0000e0 cb 7c 89 be ea 9d 15 3e 26 89 8e be 28 00 65 bd
       -0.26853022 0.1461102 -0.2783901 -0.055908352
0000f0 56 5b a7 3e 05 89 13 3f 44 27 97 3e 76 b3 75 3c
       0.3268687 0.5763095 0.29522145 0.0149964

net.6.weight f4 [24, 64]
000000 b9 e3 1a 3b 41 7e 1b 3e 82 b2 21 3e 4d 40 0a 3e
       0.0023634268 0.15184881 0.15790752 0.13501091
000010 0e 5f 86 bd 49 d8 a4 be a1 44 e5 3d 9c c5 aa 3d
       -0.06561099 -0.32196262 0.111947306 0.08338472
000020 93 76 1b 3e 83 7f 2d bf 72 95 65 bf 19 0b 81 3e
       0.15181951 -0.6777269 -0.8968116 0.2520378
000030 be a9 0f 3e 4e dc 85 bf 2c 9a 3b 3e 61 2c 98 bf
       0.14029595 -1.0457857 0.1832053 -1.1888543
000040 a5 b4 a8 3e b6 20 f4 bf 46 c1 d6 3c 8c aa 15 3e
       0.3295032 -1.9072483 0.026215207 0.1461584
000050 9b ef b1 be 84 db 2b 3e ab 28 b6 3d 42 d0 a8 3e
       -0.34753117 0.16782957 0.088944755 0.32971388
000060 af 83 54 3e dd c2 35 3e b9 1e c1 3d 60 63 3b be
       0.20753358 0.17750116 0.09429688 -0.18299627
000070 1f 75 93 bf d7 70 e2 3d 04 1d d7 be a4 3f a6 3b
       -1.1520118 0.11056679 -0.42014325 0.0050735045
000080 a9 cc 15 bd 2d 70 a9 bf 4e c8 c5 be 4c a4 3b 3e
       -0.036572132 -1.3237358 -0.38629383 0.18324393
000090 d5 73 2a bf 77 9e b8 3d 8e 09 01 3e 80 67 82 bf
       -0.66582996 0.090146 0.12601301 -1.0187836
0000a0 c7 26 19 3e 2d a2 95 be b0 4a d1 3c d5 91 86 bf
       0.14956199 -0.29225293 0.02554831 -1.0513254
0000b0 3c 3b fa 3d 95 54 dd 3c 68 5b 06 bf fc 0e 66 bf
       0.12218329 0.02701787 -0.52483225 -0.89866614
0000c0 94 2d a4 bd 78 b2 9a 3e aa 02 2d bf 99 ff 5f bf
       -0.08016506 0.30214286 -0.6758219 -0.87499386
0000d0 c6 b4 3c 3d bf 74 50 bf 32 e6 f3 bc d3 4b 89 be
       0.046070836 -0.8142814 -0.029772852 -0.26815662
0000e0 d6 49 11 3e 3f c4 c3 3d a9 1f 89 3e 00 44 c8 3e
       0.14188322 0.09558915 0.26781967 0.3911438
0000f0 4c a0 f9 3b e2 cc b9 bf c3 9f 37 3e 05 f5 82 3e
       0.007617986 -1.451565 0.17932038 0.2557756
000100 00 13 02 bf cc 57 bc bf 40 10 66 bf ec 7b 36 bf
       -0.5081024 -1.4714293 -0.89868546 -0.7128284
000110 3f ae a5 bf ac ae 0e bc 3f 63 85 3e 86 f1 7b bf
       -1.2943801 -0.008708637 0.2605228 -0.9841541
000120 45 2b 9a be 62 d4 f5 be d2 b0 d2 be d0 c8 97 bf
       -0.30111137 -0.48013598 -0.41150528 -1.1858158
000130 c0 58 d8 bf 01 d9 f3 be 4b f7 30 bf 7a e6 52 3e
       -1.6902084 -0.47626498 -0.6912734 0.20595732
000140 0c e0 93 bf 59 1b 2c 3e 1e 75 43 3e 48 bb 5a bf
       -1.1552749 0.16807307 0.19087645 -0.8544202
000150 67 1b 68 3e 1c 3e 34 3e 07 c7 80 bf 4a 70 8a bf
       0.22666703 0.17601818 -1.0060738 -1.0815518
000160 db 6a aa bf c4 79 8e bf ab 3c 40 3e 60 2e a8 3e
       -1.331386 -1.113091 0.18773143 0.3284788
000170 56 66 e0 be 79 87 34 3e 92 fe 49 be 83 e7 cc bf
       -0.43828076 0.17629804 -0.19726017 -1.6008152
000180 38 01 04 3d 87 86 58 bf 8a 0e dc be df a1 c2 bf
       0.032227725 -0.8458027 -0.42979842 -1.5205649
000190 08 f0 09 be 25 6e aa bf af 4d c4 bf bb bc b3 3e
       -0.13470471 -1.3314863 -1.5336207 0.35104927
0001a0 e5 54 db bf 3e 66 9d 3e 1b e0 95 3d 86 37 44 be
       -1.7135283 0.30742067 0.07318135 -0.19161806
0001b0 1b ce be 3d ea c5 5b 3e 4c 3c f3 3e 39 12 92 bf
       0.09316655 0.21462217 0.4750694 -1.1411811
0001c0 35 3b 53 bf 15 23 fc 3d e5 05 98 3e 59 dc 20 3e
       -0.8251222 0.12311379 0.29691997 0.15709056
0001d0 20 d6 51 bf 9b 1a 3d 3e df df c3 3e fe 20 32 3e
       -0.81967354 0.1846718 0.38256738 0.17395398
0001e0 24 f5 5d bf 4f 0f a1 bf 17 36 3c bf 76 10 5a bf
       -0.8670218 -1.2582797 -0.73520035 -0.8518137
0001f0 bf 28 9f 3e 6d 44 8a 3e 3c f4 53 bf 25 2f ec 3d
       0.31085774 0.2700533 -0.8279455 0.115324296
000200 90 4c 47 bf 5a c1 51 3e d3 77 b5 bf 7b 2f fb bf
       -0.778512 0.20483914 -1.4177192 -1.9623865
000210 f9 88 80 3e 38 c4 48 3e d6 a0 da be c2 d9 97 3d
       0.25104502 0.19606102 -0.42700833 0.07414581
000220 c3 02 75 3e 12 58 86 bf c8 1a 1b bf 84 a5 17 bf
       0.23926835 -1.0495627 -0.6058774 -0.5923693
000230 0a db 37 bf d6 8e 09 bf ae df 8c 3e 14 31 4d bf
       -0.718186 -0.53733575 0.27514404 -0.8015301
000240 50 e1 8c 3d e0 b9 78 bf 02 87 9e 3e b8 5e 5e bf
       0.068789124 -0.9715862 0.30962378 -0.8686328
000250 18 ef 02 3e 1c 35 85 3e 89 5e 25 3d 39 8f 17 bf
       0.1278652 0.26017082 0.04037336 -0.59202915
000260 a6 ce 1f bf ad 0d ac be 77 fd 55 3e eb ce e3 be
       -0.62424695 -0.33604184 0.2089747 -0.44493803
000270 49 35 73 bf eb 03 8a 3e 94 fd c2 3e d5 14 c8 3e
       -0.9500318 0.26956114 0.3808409 0.39078394
000280 58 73 4f bf 5b e2 9b bd bd 2c 1b 3e 87 43 5c bf
       -0.81035376 -0.07611533 0.15153785 -0.8604054
000290 36 d0 86 bf 9c 3f 28 bf 26 c0 93 bf 94 34 8b be
       -1.0532291 -0.6572206 -1.1543014 -0.2718855
0002a0 94 ad f9 bd d8 e0 58 bf e2 4c ab 3e 4f 2e 97 be
       -0.121913105 -0.84718084 0.33457094 -0.29527518
0002b0 6a 05 6a bf 77 f5 94 3e 02 af 47 3d 42 0e db be
       -0.9141451 0.29093525 0.048750885 -0.42784315
0002c0 de f1 b3 3e c3 d7 27 3e f8 90 75 bf 33 9c e3 3d
       0.35145468 0.163909 -0.9592433 0.11113777
0002d0 16 b5 99 3e 34 8d 1b 3e 24 42 20 be a1 1d 1b 3e
       0.3002097 0.15190583 -0.1565023 0.15148021
0002e0 f2 74 a4 be 26 d1 1f be 76 6c 34 bf 7c 49 e3 3c
       -0.32120472 -0.15607128 -0.70478 0.027745001
0002f0 d5 81 81 bf e3 4d c7 bf 43 80 e9 bd a3 a6 d0 3d
       -1.0117747 -1.5570644 -0.11401417 0.101880334
000300 84 06 df bf 3b e1 48 be f8 02 3d be ab 92 ac bf
       -1.7423863 -0.19617169 -0.18458164 -1.348226
000310 ae 56 9d bf 11 6f c7 3d ff cd a2 3e 03 23 7f 3e
       -1.2292078 0.09737981 0.31797788 0.249157
000320 5b da 54 be 16 0b b4 3e b8 08 d8 bf 5b d0 3e be
       -0.20786421 0.35164708 -1.6877661 -0.18634169
000330 2c 85 27 3e bd 71 be be 64 7e 42 3d 18 78 e9 bd
       0.16359395 -0.3719615 0.047483817 -0.11399859
000340 49 a5 4b 3e 79 39 a9 be 97 42 38 3e 39 db 49 3e
       0.1988727 -0.3305166 0.17994152 0.19712533
000350 b8 99 40 3d 8b 47 19 3e 40 19 bc 3d 77 eb d7 3e
       0.047021598 0.14968698 0.091845036 0.42171833
000360 21 0b 2b 3e 4f b1 81 3e c0 e1 91 3d 3a c5 01 be
       0.16703464 0.25330588 0.071231365 -0.12672892
000370 11 5f 38 3e a2 57 12 3e 9f 24 05 3e 32 8d 66 3d
       0.18005015 0.14291242 0.13002251 0.056286998
000380 cf 05 09 bf 85 59 8c 3e 76 ba cc 3e 15 03 1a bf
       -0.5352449 0.27412048 0.39986008 -0.6016095
000390 3a ef 85 3e 95 5b 8b 3d 3e 04 b5 3d 32 53 92 3e
       0.26159078 0.06804577 0.088387 0.28579098
0003a0 dd 66 6d be 8b 1b bd be 52 75 77 3e 5a 94 2a bf
       -0.2318377 -0.36935076 0.24165848 -0.66632617
0003b0 e4 73 39 bf 68 f6 0c bf c5 87 b6 3e 97 bc 8d bf
       -0.7244246 -0.55063486 0.3565046 -1.1073178
0003c0 b2 28 85 3e db 98 a3 bd 32 ec 4b bf 82 94 b8 3d
       0.2600761 -0.07988139 -0.7965728 0.090127006
0003d0 2a 80 51 3e 43 c2 b3 bd 71 bd 87 3e 96 df 89 3e
       0.20459047 -0.08777287 0.2651172 0.26928395
0003e0 78 df ce bf a6 59 86 3e df d3 ca be ce 80 d0 bf
       -1.6161947 0.2624027 -0.3961477 -1.6289308
0003f0 a3 03 88 bf 34 d8 3d be 71 ef 66 be 8f ca 18 be
       -1.062611 -0.18539506 -0.22552277 -0.1492102

net.6.bias f4 [24]
000000 d8 24 8a bd 53 2c a7 3e af 98 12 3e a3 da 11 3e
       -0.06745309 0.32651004 0.14316057 0.1424356
000010 84 0c 13 bf be a7 aa 3e 27 f4 3f bf b4 7d fd bd
       -0.5744097 0.33331102 -0.7498192 -0.123774916
000020 60 43 09 3f 30 c6 a3 ba dd a5 e1 3d d4 c8 cb 3e
       0.5361843 -0.0012494978 0.11017964 0.39801657
000030 5e 48 71 be 14 74 bf 3e 25 05 da be 32 45 86 3e
       -0.23562762 0.37393248 -0.4258205 0.26224667
000040 62 fd 29 3e a0 b4 8d be b4 9f 71 bf 5c ec 0f 3e
       0.16600564 -0.27676868 -0.9438431 0.14055008
000050 c7 c8 39 3e e6 00 07 bd 64 d9 18 be 4c ca 84 bf
       0.18142997 -0.03295984 -0.14926678 -1.0374236
