asl_mlp_model.pt (torch, 75997 bytes, 6 tensors)

net.0.weight f4 [128, 63]
0.36018735 0.1365539 -0.5790994 0.36895418 0.2374638 -0.110068 0.51789856 0.005097162
0.051311452 0.21864316 0.085592754 -0.08383963 -0.04878886 0.17519322 0.25456268 0.27038714
0.0072047757 0.54994565 0.12258177 -0.12547919 -0.22407272 -0.021775862 0.3772999 -0.037728753
0.14562578 0.771652 0.059470322 -0.007310486 -0.1215521 0.32253593 0.07638606 -0.21600421
-0.04751992 0.08654471 -0.0055093234 0.20904467 0.23318687 -0.052193124 0.5016175 -0.032435957
-0.13690026 0.19344766 -0.293451 -0.0057463935 -0.062928475 -0.22945657 -0.17968307 0.052604698
0.0816221 -0.36109725 0.5294062 0.057043873 0.102069646 -0.354559 -0.41196913 0.12943715
0.037269898 -0.6050382 -0.22376688 0.086418465 -0.72170913 -0.49003077 0.065491624 0.43553558
0.3850014 -2.230088 0.393313 0.037406325 0.50562733 0.08669953 -0.2917588 0.44965982
0.051067207 -0.41571078 0.28909692 -0.55629104 -0.42302287 0.3174004 0.11188825 -0.5174045
0.7182587 -0.13634747 -0.33717415 -0.038047466 -0.30597666 0.2459878 -0.04314088 -0.15496364
0.69561744 -0.043807197 0.049407504 -0.47395167 0.20637143 -0.15703031 -0.16444866 -0.033668533
-0.16257894 0.3087905 -0.06403311 -0.15729384 0.28468525 0.23442842 0.036080297 -0.17905259
-0.45220968 0.06915731 0.17882766 -0.66889155 0.044578094 0.23043086 0.0134415915 0.20611568
0.032015216 0.44222155 -0.036450602 -0.06520188 -0.885112 -0.06619319 0.058793258 -0.79986954
0.201606 0.13636757 -0.3234866 0.21689598 0.07595073 0.16782527 -0.256666 -0.05628671
1.0859978 -0.0084308535 -0.14742607 0.117010444 -0.008507927 0.006126712 0.1539764 -0.22081998
0.1037141 0.14046463 -0.39902833 0.6938585 0.32840455 0.025424095 0.13582078 0.22162785
0.30876362 -0.035262134 -0.008623056 0.57732594 0.18288308 0.11422389 0.7884199 0.3662123
0.06111189 -0.10877936 0.0043790457 -0.03028765 -0.09839695 -0.23798005 0.067578346 -0.03295107
-0.23530625 0.0427384 0.0067274123 -0.22716849 -0.07983455 -0.052803513 -0.0652578 0.010179939
-0.08634779 -0.23671316 0.27796027 -0.09990409 -0.38790807 -0.030069865 -0.1469288 -0.5362863
-0.4195298 0.0706466 -0.1269831 -0.06493883 -0.09854224 0.067550756 0.1355073 -0.063971944
0.2895367 0.32384026 0.120235376 0.50345004 0.4016213 -0.7333775 -0.014914285 -0.07078769
-0.44662797 0.1944732 -0.14947611 -0.0070430073 0.33191252 -0.32951945 0.24870567 0.14836624
-0.38401195 0.48633775 0.24870622 -0.5322201 0.046817794 0.23344973 0.24287963 0.102566026
-0.013549726 0.15262806 0.04279125 -0.2490344 -0.0012292478 0.01696608 -0.21864711 0.066263184
-0.032988574 0.0004777091 0.5694737 0.09919233 -0.22684596 0.1630236 0.26350504 0.13846911
0.05760931 0.19470212 0.4268252 0.3392509 -0.15866357 -0.018885488 0.44372323 0.07872487
-0.35530883 0.062098227 -0.11740297 -0.21248358 0.19011933 0.025292343 0.35115004 0.38163558
-0.30324966 -0.18092014 0.49717113 -0.15138124 -0.4772258 -0.0760355 0.19734345 -0.25154945
-0.26132104 0.29625416 -0.023026697 -0.36484268 -0.23179506 0.25693884 -0.30192506 0.043501087
00000000: 7a6a b83e c9d4 0b3e dc3f 14bf 90e7 bc3e
00000010: b629 733e 556b e1bd 0095 043f 1806 a73b
00000020: f52b 523d fee3 5f3e 414b af3d 1db4 abbd
00000030: d4d6 47bd da65 333e 0a56 823e 2f70 8a3e
00000040: 0a16 ec3b 3dc9 0c3f 270c fb3d 9e7d 00be
00000050: 5273 65be 4b63 b2bc 742d c13e 7789 1abd
00000060: ed1e 153e fc8a 453f 2797 733d cd8c efbb
00000070: 4ff0 f8bd 6e23 a53e 4b70 9c3d 3530 5dbe
00000080: 3fa4 42bd 5a3e b13d 8e87 b4bb ce0f 563e
00000090: 8ac8 6e3e 75c8 55bd 016a 003f 91db 04bd
000000a0: 952f 0cbe 2517 463e 363f 96be 3e4c bcbb
000000b0: a5e0 80bd aaf6 6abe d7fe 37be 0678 573d
000000c0: 7d29 a73d bde1 b8be 2a87 073f d6a6 693d
000000d0: e409 d13d c288 b5be 9eed d2be 2c8b 043e
000000e0: 52a8 183d c9e3 1abf 2523 65be 2afc b03d
000000f0: eec1 38bf 50e5 fabe 7920 863d 85fe de3e
00000100: e71e c53e c3b9 0ec0 5260 c93e 6037 193d
00000110: cb70 013f 868f b13d 6961 95be d039 e63e
00000120: d92b 513d 0bd8 d4be 8304 943e 1769 0ebf
00000130: 7496 d8be 4e82 a23e ab25 e53d 9f74 04bf
00000140: cddf 373f ac9e 0bbe 17a2 acbe a9d7 1bbd
00000150: f9a8 9cbe 3ae4 7b3e 7eb4 30bd caae 1ebe
00000160: fc13 323f 2d6f 33bd 865f 4a3d cba9 f2be
00000170: 0853 533e 8ecc 20be 3b65 28be 04e8 09bd
00000180: 187b 26be ca19 9e3e cb23 83bd a311 21be
00000190: 44c2 913e 010e 703e efc8 133d 9059 37be
000001a0: 0788 e7be 59a2 8d3d 991e 373e 7a3c 2bbf
000001b0: 8597 363d 11f6 6b3e 1f3a 5c3c fd0f 533e
000001c0: 6322 033d dd6a e23e 3a4d 15bd 9088 85bd
000001d0: b396 62bf 4c90 87bd 33d1 703d 40c4 4cbf
000001e0: ce71 4e3e f1a3 0b3e 09a0 a5be fb19 5e3e
000001f0: 0e8c 9b3d 63da 2b3e ba69 83be e58c 66bd
00000200: fa01 8b3f 9021 0abc dcf6 16be 2ca3 ef3d
00000210: d564 0bbc 96c2 c83b fdab 1d3e a21e 62be
00000220: 0f68 d43d f6d5 0f3e 714d ccbe b6a0 313f
00000230: a424 a83e 3146 d03c 9a14 0b3e 69f2 623e
00000240: 4416 9e3e 076f 10bd b847 0dbc a2cb 133f
00000250: b445 3b3e 37ee e93d e3d5 493f 2e80 bb3e
00000260: 7650 7a3d b7c7 debd 197e 8f3b ce1d f8bc
00000270: 5784 c9bd 0bb1 73be 8466 8a3d b4f7 06bd
00000280: 1ff4 70be 760e 2f3d a071 dc3b db9e 68be
00000290: 4c80 a3bd 7f48 58bd e2a5 85bd c2c9 263c
000002a0: 1cd7 b0bd ef64 72be cf50 8e3e 849a ccbd
000002b0: e39b c6be 1455 f6bc 8174 16be 0f4a 09bf
000002c0: 9ccc d6be 2aaf 903d dc07 02be a6fe 84bd
000002d0: 84d0 c9bd 0d58 8a3d 6dc2 0a3e b903 83bd
000002e0: 283e 943e 64ce a53e f73d f63d 1ae2 003f
000002f0: 4fa1 cd3e a1be 3bbf 0c5b 74bc 23f9 90bd
00000300: 6cac e4be fc23 473e 4410 19be 07c9 e6bb
00000310: 70f0 a93e c6b6 a8be b3ac 7e3e 52ed 173e
00000320: 379d c4be 4301 f93e d8ac 7e3e 943f 08bf
00000330: 04c4 3f3d 720d 6f3e 70b5 783e 230e d23d
00000340: acff 5dbc 884a 1c3e e145 2f3d e002 7fbe
00000350: b61e a1ba 73fc 8a3c 07e5 5fbe feb4 873d
00000360: 071f 07bd 0875 fa39 07c9 113f 5925 cb3d
00000370: 4f4a 68be a9ef 263e 22ea 863e d9ca 0d3e
00000380: bdf7 6b3d fe5f 473e d588 da3e 4bb2 ad3e
00000390: b478 22be bdb5 9abc b12f e33e 813a a13d
000003a0: 0aeb b5be b65a 7e3d f870 f0bd 4c95 59be
000003b0: a4ae 423e e331 cf3c f0c9 b33e bd65 c33e
000003c0: 8a43 9bbe 2143 39be 378d fe3e af03 1bbe
000003d0: f156 f4be 80b8 9bbd 6714 4a3e 17cb 80be
000003e0: dfcb 85be a0ae 973e 7ca2 bcbc a9cc babe
000003f0: af5b 6dbe 7d8d 833e ec95 9abe 322e 323d

net.0.bias f4 [128]
-0.115796834 -0.0335342 -0.045931235 0.016414877 0.007291088 -0.034846533 -0.1254835 -0.06927484
-0.0036298533 -0.12947689 -0.068635 -0.05822417 -0.1262127 -0.11905511 0.035421677 -0.111368
-0.030864136 -0.06144804 -0.007838398 -0.10274348 0.05781632 -0.04303579 -0.06472245 -0.13559303
-0.031503282 -0.05115826 -0.06485013 -0.045266267 -0.023084527 -0.01833077 -0.01149191 0.015450075
-0.0742396 0.030477008 -0.113231696 -0.091005385 -0.11086974 -0.109337024 -0.048570067 0.011952077
-0.11746595 -0.092255756 0.06966222 0.0633653 -0.017177807 0.04248351 -0.13064863 -0.026788455
-0.02083682 -0.054863296 -0.03908253 0.039443947 -0.017285766 0.10360143 0.0103592 0.045318916
-0.0946535 -0.06874382 -0.055664085 0.02759214 -0.117371686 -0.03604748 -0.007913809 -0.036149293
-0.06548741 -0.19423825 -0.06924992 -0.1738737 0.052801576 -0.0063014324 0.2315764 -0.0980665
-0.20726939 0.067051604 0.23844834 0.03887096 -0.044777926 0.08706882 -0.028143324 -0.04358963
-0.035037845 0.07462249 0.07464465 -0.13135979 -0.049141336 -0.08564694 -0.041158337 -0.06388652
-0.050876766 0.01229136 -0.034019686 0.06351395 -0.16337998 0.12745878 -0.060640406 -0.0955325
0.07824434 -0.011553445 -0.04584717 -0.09104624 -0.06753575 0.111627795 -0.013918903 -0.12154545
-0.064176805 -0.024113622 -0.035211187 -0.1629481 -0.27080166 -0.23895358 0.04336095 -0.012059209
-0.2856424 0.095113784 -0.016784111 0.040441766 0.074367836 0.121761695 -0.0025612751 0.0045707496
-0.12249855 0.05350712 0.043620817 -0.08051238 -0.06980972 -0.20446949 -0.16100688 -0.046384312
00000000: e426 edbd 285b 09bd 6422 3cbd 7e78 863c
00000010: 14ea ee3b 3dbb 0ebd bf7e 00be f8df 8dbd
00000020: d5e2 6dbb 9795 04be 8290 8cbd 787c 6ebd
00000030: e73d 01be 2ad3 f3bd 5216 113d e814 e4bd
00000040: c9d6 fcbc f1b0 7bbd a06c 00bc 2c6b d2bd
00000050: ced0 6c3d 4c46 30bd 348d 84bd e6d8 0abe
00000060: 9609 01bd 538b 51bd 25d0 84bd 1f69 39bd
00000070: c31b bdbc 692a 96bc 9048 3cbc 5022 7d3c
00000080: ee0a 98bd ebaa f93c 05e6 e7bd 0861 babd
00000090: ad0f e3bd 17ec dfbd 68f1 46bd a5d2 433c
000000a0: fd91 f0bd 96f0 bcbd 11ab 8e3d abc5 813d
000000b0: 79b8 8cbc 3003 2e3d c1c8 05be 7673 dbbc
000000c0: fbb1 aabc 56b8 60bd 0115 20bd fa8f 213d
000000d0: e19a 8dbc fd2c d43d a2b9 293c 54a0 393d
000000e0: b2d9 c1bd 8fc9 8cbd 0600 64bd e908 e23c
000000f0: 9160 f0bd 86a6 13bd eca8 01bc 4811 14bd
00000100: 431e 86bd 64e6 46be e7d2 8dbd f20b 32be
00000110: 7746 583d 3f7c cebb 5d22 6d3e 17d7 c8bd
00000120: 6d3e 54be 5a52 893d cd2b 743e 2837 1f3d
00000130: 0f69 37bd 2351 b23d d48c e6bc 0a8b 32bd
00000140: d883 0fbd add3 983d 4bdf 983d 2e83 06be
00000150: 6d48 49bd aa67 afbd a595 28bd f0d6 82bd
00000160: 2864 50bd b361 493c 3a58 0bbd 9a13 823d
00000170: 154d 27be 8e84 023e 1362 78bd 8ba6 c3bd
00000180: 923e a03d a94a 3dbc 3eca 3bbd 7376 babd
00000190: 2f50 8abd 1d9d e43d 1c0c 64bc d2ec f8bd
000001a0: 216f 83bd ee89 c5bc 9b39 10bd dedb 26be
000001b0: 84a6 8abe 3fb0 74be 409b 313d fd93 45bc
000001c0: b83f 92be 04cb c23d d57e 89bc 44a6 253d
000001d0: 2a4e 983d 325e f93d 11db 27bb 3ac6 953b
000001e0: 85e0 fabd 482a 5b3d beab 323d ade3 a4bd
000001f0: 66f8 8ebd 7360 51be fdde 24be 7afd 3dbd

net.3.weight f4 [64, 128]
-0.10245815 -0.25540948 -0.16699265 0.7752843 -0.1492022 0.8146621 0.06468064 -0.0013112277
0.560453 0.2602429 -0.12954217 0.6180537 0.043741733 -0.02192796 0.025253292 -0.2743836
-0.19929114 -0.063707486 0.5333303 -0.09274749 0.32197693 0.6820613 -0.0596654 0.7239278
-0.08047771 -1.6700869 0.02653496 -0.34859738 0.16568412 0.015116604 0.22001621 0.072211094
-0.11228117 0.11469938 0.024207294 0.027407393 0.60096604 -0.019391805 0.20204858 0.17436475
-0.7851607 0.41394278 -0.023511406 -0.039143868 0.46567586 -0.5999643 -0.25403655 -0.56909096
-0.33183005 0.5289523 -0.48209578 -0.04785603 0.35944024 -0.000699224 0.4800289 0.076365374
-0.037842706 0.57105255 0.4400237 -0.70373374 0.08365474 0.0012906715 -0.029481277 -0.55228597
0.46150663 -0.49246645 -0.028975883 0.23597853 0.055952244 -0.34173945 0.34714827 0.41384378
-0.12563184 -0.08218156 -0.09769197 0.045944475 -0.042687032 -0.10561055 -0.03091975 0.28323787
0.062631555 0.06805058 0.68434757 -0.076256156 0.086138956 -0.027065113 1.1040863 -0.6997711
0.027980648 1.8503611 -0.28881076 0.3647201 -0.35566667 0.62969536 0.9432324 -0.28880242
-0.48782292 -0.064558 0.075549565 -0.18226197 -0.18125981 -0.28662485 0.08618412 0.01588814
0.24023218 -0.053959083 0.2414913 -0.54055417 -0.5909136 -0.049765635 0.06270109 0.12804824
-0.8184524 0.11289339 -0.028491575 -0.26905066 0.081084795 0.2251478 0.24012315 0.9468205
0.8652078 -0.044128124 0.10346326 0.06890763 0.5651316 -0.66326994 -0.39352882 -0.047891367
-0.061221287 0.0803423 -0.436544 0.03863903 0.05042848 -0.15621132 -0.03762885 -0.013931453
-0.13685969 -0.16075948 -0.037368886 -0.09495688 -0.016901372 0.20180318 -0.03671233 -0.15628473
0.1182355 0.048014946 -0.011252437 -0.07163134 0.6921276 -0.45856765 0.009234095 -0.53469443
0.14545111 1.029383 -0.07852936 0.7760036 0.5610396 0.004413253 0.017403524 0.06616672
-0.13833766 -0.15681385 -0.071034454 0.021620356 -0.02000859 0.046641774 -0.15805037 1.4214492
-0.15678157 -0.20286754 2.168932 0.110453404 0.40797043 -0.0008547748 0.0813501 -0.09353172
0.03783041 -0.6827317 -0.016285146 0.013824694 -0.09015815 -0.06414214 0.055475358 0.02585575
0.055703156 -0.031030182 0.0077147405 -0.047691252 0.074157976 0.05030977 -0.063424915 0.06034983
-0.07945441 1.7943599 -0.03908588 -0.14902426 -0.03716868 0.598594 0.04973099 1.2154874
0.1326567 -0.068275556 -0.39538306 -0.034479924 -0.056868963 0.064847276 0.078152604 -0.12220306
-0.027094774 -0.022277007 -0.09266416 -0.016570244 0.029610235 -0.005884394 -0.6663375 -0.2294051
-0.01952608 -0.039282147 -0.23602505 0.43987727 -0.28904465 -0.06333506 0.052075714 0.28178537
-0.13269822 0.0028086996 0.0024423464 0.8147313 0.10542993 -0.23098756 -0.041706476 0.030808225
-0.11099091 0.3341474 1.1385775 0.0064464603 1.1903086 0.05732241 -0.010359151 -0.11712052
0.8534197 0.1411578 -0.0025171696 0.08031542 0.009801872 -0.13483274 1.1584034 2.24766
0.20643798 -0.0015622046 2.1154528 -0.349403 0.021630649 0.14687163 -0.17963988 0.025904283
00000000: 94d5 d1bd 08c5 82be 1f00 2bbe 0879 463f
00000010: 76c8 18be b28d 503f 4977 843d 80dd abba
00000020: d979 0f3f 8f3e 853e b4a6 04be c438 1e3f
00000030: 882a 333d 44a2 b3bc fedf ce3c 027c 8cbe
00000040: fa12 4cbe 1279 82bd 5688 083f 65f2 bdbd
00000050: 29da a43e 929b 2e3f b563 74bd 5553 393f
00000060: 7fd1 a4bd 68c5 d5bf d85f d93c 5b7b b2be
00000070: 19a9 293e a2ab 773c ee4b 613e 69e3 933d
00000080: acf3 e5bd 82e7 ea3d 604e c63c 7885 e03c
00000090: e9d8 193f 90db 9ebc d3e5 4e3e ac8c 323e
000000a0: 4b00 49bf 4ff0 d33e fe9a c0bc 5255 20bd
000000b0: 116d ee3e 4397 19bf 1411 82be f2af 11bf
000000c0: a1e5 a9be 6b69 073f 42d5 f6be af04 44bd
000000d0: 8d08 b83e 214c 37ba 59c6 f53e 7365 9c3d
000000e0: f400 1bbd 8030 123f c94a e13e e527 34bf
000000f0: 2d53 ab3d c02b a93a b882 f1bc 9d62 0dbf
00000100: 994a ec3e 9024 fcbe d55e edbc 5ba4 713e
00000110: 2e2e 653d 79f8 aebe 6bbd b13e 55e3 d33e
00000120: a2a5 00be ce4e a8bd ba12 c8bd 4630 3c3d
00000130: 99d8 2ebd 584a d8bd 6a4b fdbc 8e04 913e
00000140: f944 803d 1a5e 8b3d 6731 2f3f 302c 9cbd
00000150: 9f69 b03d a8b7 ddbc b352 8d3f 3324 33bf
00000160: ac37 e53c a2d8 ec3f 01df 93be 98bc ba3e
00000170: f119 b6be b733 213f ae77 713f e9dd 93be
00000180: edc3 f9be fc36 84bd bbb9 9a3d e2a2 3abe
00000190: 2c9c 39be 7ec0 92be 4d81 b03d d827 823c
000001a0: 6dff 753e 3304 5dbd 7f49 773e c261 0abf
000001b0: 1d46 17bf 0dd7 4bbd 6e69 803d 141f 033e
000001c0: 1986 51bf a634 e73d 2a67 e9bc 02c1 89be
000001d0: c90f a63d 258d 663e d8e2 753e d462 723f
000001e0: 427e 5d3f b1bf 34bd 8ce4 d33d 721f 8d3d
000001f0: 77ac 103f 0fcc 29bf 9c7c c9be bd29 44bd
00000200: 2cc3 7abd 818a a43d b282 dfbe f643 1e3d
00000210: 188e 4e3d dcf5 1fbe b620 1abd c040 64bc
00000220: f224 0cbe 229e 24be 1e10 19bd c178 c2bd
00000230: bf74 8abc 7ea5 4e3e ab5f 16bd 1b09 20be
00000240: 7425 f23d 52ab 443d 245c 38bc 74b3 92bd
00000250: 462f 313f 61c9 eabe 9a4a 173c bce1 08bf
00000260: 23f1 143e d2c2 833f 00d4 a0bd 2ca8 463f
00000270: 4ba0 0f3f 0d9d 903b d691 8e3c 6b82 873d
00000280: 63a8 0dbe cf93 20be 837a 91bd 2c1d b13c
00000290: 0ee9 a3bc 720b 3f3d f5d7 21be 0cf2 b53f
000002a0: 598b 20be 82bc 4fbe c8cf 0a40 6535 e23d
000002b0: 80e1 d03e f712 60ba e29a a63d 8f8d bfbd
000002c0: 0ff4 1a3d 81c7 2ebf 6d68 85bc f880 623c
000002d0: d6a4 b8bd f45c 83bd 213a 633d 70cf d33c
000002e0: fe28 643d 0233 febc efcb fc3b e757 43bd
000002f0: 23e0 973d 9e11 4e3d ece4 81bd 6231 773d
00000300: feb8 a2bd 96ad e53f 8418 20bd d199 18be
00000310: 303e 18bd 753d 193f b9b2 4b3d 1795 9b3f
00000320: 28d7 073e 0ed4 8bbd a66f cabe d23a 0dbd
00000330: 6eef 68bd a6ce 843d 790e a03d 9945 fabd
00000340: dcf5 ddbc 457e b6bc b5c6 bdbd 52be 87bc
00000350: 2a91 f23c e0d1 c0bb 1895 2abf 2ce9 6abe
00000360: 28f5 9fbc 51e6 20bd 8db0 71be 9837 e13e
00000370: a9fd 93be d0b5 81bd 584d 553d 2c46 903e
00000380: 0be2 07be 2912 383b c60f 203b 3b92 503f
00000390: a6eb d73d 0188 6cbe 69d4 2abd 8861 fc3c
000003a0: 344f e3bd 5e15 ab3e e8bc 913f d43c d33b
000003b0: 085c 983f e7ca 6a3d 6eb9 29bc e2dc efbd
000003c0: b779 5a3f ac8b 103e 19f7 24bb 697c a43d
000003d0: 0898 203c 9811 0abe 9046 943f a9d9 0f40
000003e0: 7a64 533e e3c2 ccba 9463 0740 f3e4 b2be
000003f0: c232 b13c 8465 163e 84f3 37be 3835 d43c

net.3.bias f4 [64]
-0.005607526 0.22876841 0.049739692 -0.03422614 0.0663732 0.16526023 0.03210734 0.06565525
-0.048191365 0.3126818 0.049361754 -0.015833737 0.3281658 -0.01842885 -0.034584917 -0.05660314
0.26960704 -0.022984656 0.18138728 0.034008212 0.23143809 -0.0660532 0.20124143 0.11317887
-0.032384373 -0.026653579 0.29011145 0.35294694 0.005207273 0.16224146 0.2520851 0.063073054
0.23920983 0.49878135 0.27765715 0.044540703 0.3470573 -0.24011056 0.06957736 0.060509615
-0.014324869 0.4453491 0.12098239 -0.08559251 -0.1201844 -0.0058882656 -0.07764818 0.1928416
0.063377194 0.16941082 0.296849 0.22149365 0.08222242 0.2922484 0.08814575 0.18937601
-0.07225326 0.13203785 0.12546715 -0.09157795 -0.07747754 0.053778894 -0.02094702 -0.08664257
00000000: 56bf b7bb 4442 6a3e d9bb 4b3d b530 0cbd
00000010: acee 873d fa39 293e fc82 033d 4276 863d
00000020: 4f64 45bd d417 a03e 8d2f 4a3d c1b5 81bc
00000030: 5905 a83e 1af8 96bc eaa8 0dbd b2d8 67bd
00000040: ef09 8a3e 514a bcbc 96bd 393e 324c 0b3d
00000050: 1bfe 6c3e e646 87bd 3c12 4e3e 53ca e73d
00000060: 7aa5 04bd 9b58 dabc 7d89 943e 76b5 b43e
00000070: c6a1 aa3b a022 263e 4c11 813e 722c 813d
00000080: 6cf3 743e 4560 ff3e 1429 8e3e 5070 363d
00000090: 7fb1 b13e 8bdf 75be 937e 8e3d eed8 773d
000000a0: dbb2 6abc cc04 e43e 9ec5 f73d 204b afbd
000000b0: 3d23 f6bd 5af2 c0bb 0206 9fbd 4578 453e
000000c0: e7cb 813d 087a 2d3e 98fc 973e 3bcf 623e
000000d0: 3a64 a83d 95a1 953e c285 b43d c9eb 413e
000000e0: 84f9 93bd ee34 073e 767a 003e 388d bbbd
000000f0: 8bac 9ebd 4247 5c3d 1699 abbc a971 b1bd

net.6.weight f4 [26, 64]
0.12690344 -2.3663619 0.17023805 0.20414586 0.24220455 -0.517814 -0.62839186 -0.3647228
0.18245369 -0.012665309 -0.112395205 -0.24746679 0.1591972 0.15743701 0.23106444 0.89731264
0.21261786 -0.25700307 0.19552739 -1.5940756 0.1665672 -1.8788257 0.17388971 -1.1295899
0.25436574 -0.06458529 0.084956795 0.066282615 0.08698896 0.2862181 -0.21727696 -0.5651092
0.23520458 0.072548956 0.10500245 0.14791137 -0.11935557 -0.1534559 -0.18518783 -0.08476832
-1.3113484 0.022834502 0.14137113 0.04941177 0.10922024 -0.023981929 -2.4627936 -2.7755876
-2.5842836 -1.1591495 0.032773547 -0.076072 -0.5333878 0.10912192 0.23210391 0.14676498
0.14761855 0.11392302 0.22033393 0.0249137 -2.5036612 0.3058005 -0.050284788 0.034042656
-1.6375799 0.17343141 -2.1056237 0.4171855 -1.6554691 0.50772506 0.36280802 0.14163846
-2.2866988 0.20258044 0.35952404 -0.0349649 0.09215317 -1.796011 -1.1334115 0.2693177
-0.8366007 -1.7749403 -1.5709889 0.19491515 -2.4553263 0.3963711 -0.62036914 -1.7358402
-1.2731718 0.23571 0.066743374 0.22499123 -1.4352045 -1.2847488 -0.18047543 0.3832598
-3.4172091 -2.5874271 -1.1365272 -1.8058587 0.19864258 -0.45042488 -1.6108391 0.28921783
0.13831492 -1.5838294 -1.1784332 0.11078518 0.3470284 0.21407123 -0.43894187 0.13364592
0.2657017 0.08084981 -0.39930978 -0.47525945 0.1266504 0.24017255 -1.4881479 -1.3402622
-1.9132468 0.3106602 -1.9975748 -2.0819128 0.09929637 -2.012399 0.49850386 -0.055884328
0.09642651 -2.614647 -1.631144 -1.2534596 -1.4690912 -0.39754298 0.37008423 0.24268542
-1.0497352 -3.4089592 0.4491207 -2.24193 0.21701299 -0.32762682 -0.45675853 0.36109528
-1.2933363 -1.0026628 0.1977756 -0.30588657 -0.6319646 0.30226445 -0.3995769 0.4843195
0.59504676 -0.1102166 0.19796976 0.2508182 -1.7927862 0.28661218 -0.18097734 0.36799946
-0.16777892 0.34123993 -2.4302902 0.3040525 0.25290287 -1.7186258 -0.9603489 0.2620567
-3.3811865 -0.44442672 0.09479502 -0.902332 -0.75985533 0.2665559 -0.13787732 -1.9338673
-0.9724592 -3.0673368 -0.20800216 -1.661749 0.35441798 0.28576696 0.49716237 0.13913119
-0.17997064 0.124022745 -1.3851047 -0.4463042 0.23605025 -0.11693795 0.48745444 0.029029332
-0.09330142 -0.0717506 -0.43972507 -0.7633291 -0.5162369 0.70180416 0.25779384 0.16004714
0.3195279 -1.0058244 0.3406894 -0.3978757 0.018952888 -1.7049811 0.6819595 0.18880554
-0.59429944 0.3134151 0.17608464 -0.34598815 -1.5312177 0.37468445 0.29558495 0.44280636
-0.9739409 0.016619558 0.06628114 0.16092446 0.24689823 -1.1478983 -0.2691801 0.054702368
0.052659594 -0.88631016 0.17780292 -0.9621851 0.19521616 -0.06570125 0.4235796 0.07212535
-1.822651 0.5671062 0.15428971 0.6264576 0.15122801 0.22238423 0.30240548 -0.19258389
-0.19194809 -2.354582 -0.7083029 -2.7563357 0.18349338 0.23720418 0.23912111 0.15626073
-1.7320678 0.06330253 -0.110091195 0.11255983 0.095972575 -1.6980605 0.046251416 -0.08876514
00000000: faf2 013e 7972 17c0 e252 2e3e 9d0b 513e
00000010: 7804 783e 758f 04bf 4ade 20bf f2bc babe
00000020: 24d5 3a3e 2882 4fbc 752f e6bd ef67 7dbe
00000030: 9704 233e 2b37 213e 289c 6c3e 48b6 653f
00000040: 7fb8 593e e895 83be 5538 483e ab0a ccbf
00000050: 9890 2a3e 5c7d f0bf 2510 323e 6796 90bf
00000060: 3a3c 823e 4b45 84bd d4fd ad3d 2ebf 873d
00000070: 4527 b23d 2e8b 923e da7d 5ebe ffaa 10bf
00000080: 78d9 703e 8c94 943d 860b d73d 1476 173e
00000090: b170 f4bd 8b23 1dbe e1a1 3dbe 039b adbd
000000a0: 44da a7bf 6c0f bb3c 98c3 103e ff63 4a3d
000000b0: dcae df3d c075 c4bc 699e 1dc0 3aa3 31c0
000000c0: e764 25c0 035f 94bf 8e3d 063d a3cb 9bbd
000000d0: 1a8c 08bf 507b df3d a6ac 6d3e 8f49 163e
000000e0: 5129 173e 7950 e93d 389f 613e d117 cc3c
000000f0: fc3b 20c0 e291 9c3e 6cf7 4dbd 5070 0b3d
00000100: 389c d1bf 0198 313e 8ac2 06c0 5699 d53e
00000110: 69e6 d3bf 45fa 013f f9c1 b93e ac09 113e
00000120: 4659 12c0 3f71 4f3e 8913 b83e 5b37 0fbd
00000130: cdba bc3d b0e3 e5bf a113 91bf 02e4 893e
00000140: 772b 56bf 3e31 e3bf 2a16 c9bf d697 473e
00000150: 1124 1dc0 27f1 ca3e 83d0 1ebf 0330 debf
00000160: 4bf7 a2bf f65d 713e c0b0 883d 1a64 663e
00000170: c8b4 b7bf a672 a4bf 8dce 38be a13a c43e
00000180: 8eb3 5ac0 6898 25c0 b979 91bf 6126 e7bf
00000190: f668 4b3e 179e e6be fa2f cebf 5c14 943e
000001a0: 6da2 0d3e ecba cabf e6d6 96bf 57e3 e23d
000001b0: b5ad b13e 7d35 5b3e fdbc e0be 7ada 083e
000001c0: 0e0a 883e 9694 a53d 5572 ccbe 3555 f3be
000001d0: a4b0 013e cbef 753e a17b bebf b68d abbf
000001e0: 45e5 f4bf db0e 9f3e 88b0 ffbf 0f3e 05c0
000001f0: e55b cb3d 25cb 00c0 e63b ff3e f7e6 64bd
00000200: 437b c53d 6056 27c0 54c9 d0bf 5d71 a0bf
00000210: 2e0b bcbf c18a cbbe ae7b bd3e 8782 783e
00000220: b95d 86bf 632c 5ac0 26f3 e53e c87b 0fc0
00000230: a738 5e3e b4be a7be 41dc e9be 7be1 b83e
00000240: 0b8c a5bf 4157 80bf b085 4a3e 2a9d 9cbe
00000250: 6fc8 21bf 68c2 9a3e 5895 ccbe baf8 f73e
00000260: fc54 183f 3eb9 e1bd 96b8 4a3e 3e6b 803e
00000270: 057a e5bf d5be 923e 2052 39be 6d6a bc3e
00000280: 3dce 2bbe 00b7 ae3e e089 1bc0 c5ac 9b3e
00000290: 7c7c 813e eefb dbbf 6dd9 75bf 4c2c 863e
000002a0: 5c65 58c0 e68b e3be e423 c23d 3bff 66bf
000002b0: e185 42bf 047a 883e b62f 0dbe f788 f7bf
000002c0: 16f3 78bf 3f4f 44c0 85fe 54be 31b4 d4bf
000002d0: 4676 b53e 0c50 923e 118c fe3e 6878 0e3e
000002e0: 394a 38be a3ff fd3d 1c4b b1bf fc81 e4be
000002f0: 28b7 713e 2a7d efbd a193 f93e ecce ed3c
00000300: d114 bfbd fbf1 92bd a523 e1be 8969 43bf
00000310: 1a28 04bf 70a9 333f 8efd 833e 66e3 233e
00000320: 2999 a33e dbbe 80bf d76e ae3e 5db6 cbbe
00000330: 1643 9b3c d23c dabf e694 2e3f 3d56 413e
00000340: 0224 18bf f277 a03e 884f 343e 5c25 b1be
00000350: f1fe c3bf a4d6 bf3e e956 973e 84b7 e23e
00000360: 3154 79bf bd25 883c 68be 873d 62c9 243e
00000370: e4d2 7c3e 55ee 92bf f9d1 89be 970f 603d
00000380: 96b1 573d 39e5 62bf f811 363e c351 76bf
00000390: bfe6 473e 618e 86bd 6ddf d83e 75b6 933d
000003a0: a14c e9bf df2d 113f 1ffe 1d3e 865f 203f
000003b0: 84db 1a3e b1b8 633e e4d4 9a3e b634 45be
000003c0: 0a8e 44be 79b1 16c0 5753 35bf ce67 30c0
000003d0: b0e5 3b3e a7e5 723e 2adc 743e d002 203e
000003e0: 66b4 ddbf c2a4 813d 7e77 e1bd c585 e63d
000003f0: 458d c43d 0c5a d9bf 2072 3d3d 7fca b5bd

net.6.bias f4 [26]
0.24188216 0.8194497 0.45123518 0.14771834 -0.87050605 -0.071177356 0.08827992 0.67416674
-0.6415968 -0.24043477 -0.23393781 0.21054068 0.36954522 0.6289143 0.6980686 -0.35292315
0.3648652 -0.32011783 -0.16780336 -0.8356029 0.4673526 0.05263417 0.039895117 -0.7319517
-0.6520382 -0.42201775
00000000: f5af 773e 75c7 513f 4c08 e73e 7a43 173e
00000010: 7cd9 5ebf 6fc5 91bd 1acc b43d 3196 2c3f
00000020: b03f 24bf 8834 76be 658d 6fbe fa97 573e
00000030: 0835 bd3e 8700 213f a0b4 323f 58b2 b4be
00000040: 9dcf ba3e 7ce6 a3be a5d4 2bbe 12ea 55bf
00000050: d748 ef3e ed96 573d 1069 233d 3061 3bbf
00000060: faeb 26bf b612 d8be
