asl_model.pth (torch, 236525 bytes, 6 tensors)

conv1.weight f4 [16, 3, 3, 3]
0	0x3e6446ad	0.22292586
1	0x3ef1e72e	0.4724669
2	0x3ebc3bd3	0.36764392
3	0x3dbe4298	0.092900455
4	0x3e84ae0a	0.2591403
5	0x3ec1c360	0.37844372
6	0x3ebb0d62	0.36533648
7	0x3e77240e	0.24134848
8	0x3f0ec18a	0.5576407
9	0xbe90fd5a	-0.28318292
10	0x3da04d64	0.07827261
11	0xbcb0b6f0	-0.021571606
12	0xbe87a525	-0.26493183
13	0xbe078a00	-0.13236237
14	0x3e310d7c	0.172903
15	0xbeda0539	-0.4258211
16	0xbe37f4bb	-0.17964451
17	0x3e86de43	0.26341447
18	0xbe7e4abd	-0.24833198
19	0xbe059029	-0.13043274
20	0xbbb37f7c	-0.005477844
21	0xbefc461d	-0.49272242
22	0xbeeabe79	-0.45848444
23	0xbe0626c3	-0.13100724
24	0xbecd3e84	-0.40086758
25	0xbdce4e41	-0.100735195
26	0x3e367fc2	0.17822173
27	0x3e2a8c18	0.16655004
28	0x3e9455e7	0.28971788
29	0x3ec81a2a	0.39082462
30	0x3e8edeaa	0.27904254
31	0x3e921a15	0.28535524
32	0x3d7ddbae	0.06197708
33	0xbd2249d8	-0.039621204
34	0x3cbe3aeb	0.023221454
35	0x3e205d23	0.15660529
36	0x3e776114	0.24158126
37	0x3e64a7d3	0.22329645
38	0x3ea39121	0.31946662
39	0x3e91a55b	0.2844647
40	0x3e95c209	0.292496
41	0x3ea5bb82	0.3236962
42	0x3ea6ed30	0.32602835
43	0x3dc632dd	0.0967767
44	0x3ea7a8cf	0.32745978
45	0x3ec2d397	0.38052055
46	0x3ebf0c3d	0.37314025
47	0x3ecf20e8	0.40454793
48	0x3e0fe0de	0.14050624
49	0x3ea250f5	0.3170239
50	0x3eae5edb	0.34056744
51	0x3e931b23	0.2873164
52	0x3dbabb5c	0.09117767
53	0xbc969ffa	-0.01838683
54	0xbe762d79	-0.24040784
55	0xbe644b67	-0.22294389
56	0xbeca1b32	-0.39473873
57	0xbe202379	-0.15638532
58	0xbdb7f955	-0.08983103
59	0xbe9dfa2b	-0.30854926
60	0x3e335f10	0.17516732
61	0x3e05baa0	0.13059473
62	0xbe820c65	-0.2540008
63	0xbe62afe0	-0.22137403
64	0xbef63ad7	-0.48091766
65	0xbee8f0cf	-0.45496222
66	0xbe7dcb28	-0.24784529
67	0xbf0f5c31	-0.5600005
68	0xbf259b86	-0.64690435
69	0xbe3b4741	-0.182889
70	0xbeb3c76f	-0.35113093
71	0xbecc61f7	-0.3991849
72	0xbebeafab	-0.372434
73	0xbee6dae2	-0.4508887
74	0xbe6e547a	-0.23274413
75	0xbe88b820	-0.26702976
76	0xbea3a98e	-0.31965297
77	0xbedecc00	-0.43515015
78	0xbd949a25	-0.07255963
79	0xbcacdc75	-0.021101216
80	0xbeb39584	-0.3507501
81	0xbcea0617	-0.028567357
82	0xbeeb7d18	-0.45993876
83	0xbe5570f5	-0.20843871
84	0xbe7227bd	-0.23647971
85	0xbec0da5d	-0.37666598
86	0x3db1331a	0.08652325
87	0xbe721fc5	-0.23644932
88	0xbec28268	-0.37990117
89	0x3d43cdd3	0.04780371
90	0x3d80bcef	0.06286036
91	0xbe316183	-0.17322354
92	0xbeb58151	-0.35450223
93	0x3e820dfe	0.254013
94	0xbe97776f	-0.29583308
95	0x3c445d0a	0.011985073
96	0xbd6a45fd	-0.057195652
97	0xbe750506	-0.23927698
98	0xbcd1ede1	-0.025626125
99	0x3ef0a84b	0.47003397
100	0xbddd5671	-0.10807503
101	0xbb856dcf	-0.004071928
102	0x3ed49322	0.41518503
103	0x3ca3cfe6	0.019996595
104	0x3eaf7b09	0.34273556
105	0x3e91f6c3	0.28508577
106	0xbe163ae2	-0.146709
107	0x3edbcc71	0.42929414
108	0x3e6158bc	0.22006506
109	0x3eee505f	0.46545693
110	0x3f1e7bb6	0.6190752
111	0x3ed55ea5	0.4167377
112	0x3dbf6b69	0.09346659
113	0x3e91f2de	0.28505605
114	0x3d1dcf1a	0.038527586
115	0x383a0b3c	4.435632e-05
116	0xbe523524	-0.20528084
117	0xbe09447f	-0.13405035
118	0x3de7c37d	0.11316583
119	0x3e5659e3	0.20932727
120	0xbe6b97f2	-0.23007181
121	0xbedc2171	-0.42994264
122	0xbeccc79e	-0.39996046
123	0xbef7818f	-0.48341033
124	0xbea9f7d4	-0.3319689
125	0xbf0e03a5	-0.5547431
126	0xbe95bf20	-0.2924738
127	0xbeacb304	-0.33730328
128	0xbcf29876	-0.029613715
129	0xbe65a49c	-0.22426075
130	0xbf1137ac	-0.56725574
131	0xbf1ae5a5	-0.6050666
132	0xbedf7e76	-0.4365117
133	0xbf0ed048	-0.5578656
134	0xbeef5d97	-0.4675109
135	0x3e667716	0.22506365
136	0x3ebec0c9	0.37256458
137	0x3ecee985	0.40412536
138	0xbea277fc	-0.31732166
139	0x3e27f889	0.16403402
140	0x3f0260d7	0.50929016
141	0xbd936cc6	-0.07198481
142	0xbe3b7d19	-0.1830944
143	0x3ee55708	0.44792962
144	0xbdafbb68	-0.08580667
145	0xbbd19e4a	-0.0063970434
146	0x3f0d3361	0.55156523
147	0xbf23019f	-0.6367435
148	0xbe462040	-0.1934824
149	0x3f0aa03b	0.5415074
150	0xbf4be585	-0.79647094
151	0xbf03ee7f	-0.5153579
152	0xbd3ab15a	-0.045579292
153	0xbd830613	-0.06397643
154	0x3ca95ccd	0.020674134
155	0x3f037326	0.5134758
156	0xbea85169	-0.3287461
157	0xbdee4b6d	-0.1163548
158	0x3f0fbbe8	0.561461
159	0xbf06a00a	-0.5258795
160	0xbf097fb9	-0.53710514
161	0xbd5311f3	-0.05153079
162	0xbe80e0e6	-0.25171584
163	0xbeb9f59f	-0.36320207
164	0xbe954c11	-0.29159597
165	0xbe8f90d8	-0.28040195
166	0xbd082837	-0.033241477
167	0xbd748760	-0.059699416
168	0xbd9deef4	-0.07711592
169	0xbe8a43b9	-0.27004793
170	0xbd901e1a	-0.070369914
171	0xbf04432b	-0.5166499
172	0xbe74ab62	-0.23893502
173	0xbee6eeb1	-0.45103982
174	0xbeb1b76e	-0.34710258
175	0xbecdaf0a	-0.40172607
176	0xbeba61b1	-0.36402658
177	0xbedb4bc3	-0.4283124
178	0xbeca03be	-0.3945598
179	0xbeb2ebeb	-0.34945616
180	0xbe6f2d6c	-0.23357171
181	0xbe8000fa	-0.25000745
182	0xbe6ceade	-0.2313647
183	0xbead60a0	-0.33862782
184	0xbecddd2b	-0.402078
185	0xbe8007be	-0.25005907
186	0xbd5bebb6	-0.05369159
187	0xbdd87380	-0.10568905
188	0xbe07e4b9	-0.13270845
189	0xbda895ae	-0.08231674
190	0xbe3cee20	-0.18450212
191	0x3de5f215	0.11227814
192	0xbdf4d174	-0.119540125
193	0x3e95cf8c	0.29259908
194	0x3e20ca23	0.15702109
195	0x3e862d38	0.26206374
196	0x3ed8ffb7	0.42382595
197	0x3ead806a	0.33887035
198	0xbf3dcca3	-0.74140376
199	0xbf21d59c	-0.6321657
200	0xbe8ac19a	-0.2710083
201	0xbe7579dd	-0.23972268
202	0xbe3f09c4	-0.18656069
203	0xbd8b2e1f	-0.06795906
204	0x3ec74805	0.38922134
205	0x3efa54e8	0.48892903
206	0x3e9626a1	0.29326347
207	0xbeff3074	-0.49841654
208	0xbebd0e18	-0.36924815
209	0xbddf3e1c	-0.10900518
210	0xbe9e0764	-0.30865014
211	0x3d286c06	0.041118644
212	0xbe0fcd7f	-0.14043234
213	0x3ee954a1	0.4557238
214	0x3f0d3841	0.5516396
215	0x3ea8c6e2	0.32964236
216	0x3eb25107	0.34827444
217	0x3e01c0c9	0.12671198
218	0xbe1fa739	-0.15591134
219	0x3ec91f90	0.39281893
220	0xbd2b600d	-0.041839648
221	0xbee1d476	-0.44107407
222	0x3e92b072	0.28650242
223	0x3dd4970a	0.10380371
224	0xbe8b7f1b	-0.2724541
225	0x3eebbea6	0.4604389
226	0x3e8d10fd	0.27552024
227	0xbed1315c	-0.4085797
228	0x3efd2dac	0.49448907
229	0x3decc6a0	0.11561322
230	0xbf49d820	-0.78845406
231	0x3e0e4af8	0.13895786
232	0xbe8a49e9	-0.27009514
233	0xbef6ebe1	-0.48226836
234	0x3ea54e0c	0.32286108
235	0x3e402ec9	0.18767847
236	0xbedec9e8	-0.43513417
237	0x3ec75606	0.38932818
238	0x3e723cba	0.23655978
239	0xbf410db8	-0.7541156
240	0x3f08dc92	0.53461564
241	0x3d85afd1	0.06527675
242	0xbf0bf475	-0.54669887
243	0x3e67ec7a	0.22648802
244	0x3f120ebc	0.5705373
245	0x3ecfcbde	0.40585226
246	0xbc6e69d7	-0.014551601
247	0xbd607a85	-0.054804344
248	0x3e61d095	0.22052224
249	0xbea9bc4e	-0.33151478
250	0xbebe48bf	-0.37164876
251	0xbec6ede4	-0.3885337
252	0xbd6ddc03	-0.058071148
253	0x3e20724a	0.15668598
254	0x3e46b464	0.19404751
255	0xbe3880c8	-0.18017876

conv1.bias f4 [16]
0	0x3e77b99a	0.24191895
1	0xbe249b88	-0.16074955
2	0x3d1eb3b7	0.03874561
3	0x3eb3b7a8	0.35101056
4	0x3eb45e13	0.35228023
5	0x3da564f7	0.08075898
6	0xbdc4f2d8	-0.09616631
7	0x3d90492f	0.07045209
8	0xbd9a5062	-0.07534863
9	0x3e664ab3	0.22489433
10	0x3eac9a72	0.33711582
11	0xbe48f33c	-0.19624037
12	0xbddfddc5	-0.10930971
13	0x3e844bf1	0.2583919
14	0x3e45ee37	0.19329153
15	0x3c5b073b	0.013368423

conv2.weight f4 [32, 16, 3, 3]
0	0xbe166963	-0.1468864
1	0xbbbce396	-0.005764435
2	0x3e202902	0.15640643
3	0xbde0ec4c	-0.1098257
4	0xbe523e07	-0.20531474
5	0x3db2aee2	0.087247625
6	0xbca6a494	-0.020342149
7	0xbe32ee65	-0.17473753
8	0xbdbb9a94	-0.09160343
9	0x3d5cc082	0.053894527
10	0xbd1b02a7	-0.037844326
11	0xbbd89fce	-0.006610847
12	0x3d50d906	0.05098822
13	0xba95bf5c	-0.0011424827
14	0xbe8c8ec8	-0.27452683
15	0xbdcb47d3	-0.09925809
16	0x3c0bac95	0.0085250335
17	0xbe77eab0	-0.2421062
18	0x3ce71aff	0.028211115
19	0x3db9eea0	0.09078717
20	0xbdd27097	-0.10275381
21	0xbce29330	-0.027658075
22	0x3b70868d	0.0036701292
23	0xbc641438	-0.013920836
24	0xbe46e871	-0.19424607
25	0xbe3138dc	-0.17306846
26	0x3d4d10f7	0.050065007
27	0x3da436f8	0.08018297
28	0xbe2029f6	-0.15641007
29	0x3c752b76	0.014963975
30	0xbd5eb3b1	-0.054370586
31	0xbccdcb9e	-0.025121506
32	0x3db3e299	0.087834544
33	0xbd0e5530	-0.03474921
34	0xbd84f144	-0.0649133
35	0x3e2de9a4	0.16983658
36	0xbd307c94	-0.043087557
37	0x3de6b37c	0.11264703
38	0xbd53a733	-0.051673125
39	0xbd08c94a	-0.03339509
40	0xbce6a0a4	-0.028152771
41	0x3e014e70	0.12627578
42	0xbd9eda59	-0.0775649
43	0xbe6bd888	-0.23031819
44	0xbdf0b85d	-0.117539145
45	0x3d5c7250	0.053819954
46	0x3eaf7fdc	0.34277236
47	0x3ee87882	0.4540444
48	0x3c9df85b	0.019283464
49	0xbd8ce90e	-0.06880389
50	0x3ed72f8a	0.42028457
51	0x3ebd054b	0.369181
52	0x3d828360	0.06372714
53	0xbc42a9e3	-0.011881324
54	0x3b36f021	0.0027914124
55	0x3c6bfa26	0.014402902
56	0x3c8b62fd	0.017014975
57	0xbc902570	-0.017595977
58	0x3dd9a741	0.10627604
59	0x3d536090	0.05160576
60	0xbe077150	-0.13226819
61	0xbe342851	-0.17593504
62	0xbd8e4c30	-0.06948125
63	0x3e6ac77c	0.2292766
64	0x3ce70818	0.028202102
65	0xbdcc9924	-0.09990147
66	0xbbf4ab9e	-0.0074667474
67	0x3dca076c	0.09864697
68	0xbd9e0924	-0.07716587
69	0xbd653ed2	-0.055968113
70	0x3bab3945	0.005225333
71	0x3c99f7df	0.018794952
72	0x3e4b052f	0.19826196
73	0x3cb7d569	0.02244063
74	0xbe9d3183	-0.30701837
75	0x3d9203a3	0.071296
76	0x3e428082	0.18994334
77	0x3e1bac32	0.15202406
78	0xbe942370	-0.28933287
79	0xbdc66b3d	-0.09688423
80	0x3e84a8f6	0.25910157
81	0xbd9c76b7	-0.076398306
82	0x3dccd6be	0.10001896
83	0x3d4079db	0.04699121
84	0xbd23c6c3	-0.039984476
85	0xbe05a48f	-0.13051055
86	0x3d875882	0.066086784
87	0xbda40b36	-0.08009951
88	0xbe5fbecf	-0.21850131
89	0xbe28ab87	-0.16471682
90	0xbddfa350	-0.10919821
91	0xbdf1ba9e	-0.118031725
92	0xbe4a2670	-0.19741225
93	0xbd990af2	-0.07472791
94	0x3cc78903	0.024357324
95	0xbca50bb2	-0.020147178
96	0xbdb9a4e9	-0.09064657
97	0xbe3be883	-0.18350415
98	0x3dc63eab	0.09679922
99	0x3e3e844b	0.18605153
100	0x3e0a5240	0.13507938
101	0xbc79d660	-0.015248865
102	0x3dcc8b44	0.099875
103	0x3e3ccf0d	0.18438359
104	0x3dfc7d42	0.123285785
105	0xbe29da90	-0.16587281
106	0xbd8c985b	-0.06864997
107	0x3e6b3546	0.22969541
108	0x3daa762f	0.08323323
109	0xbdb6a7c8	-0.089187205
110	0xbdcc5404	-0.09976962
111	0x3e4c3324	0.19941384
112	0xbdf9b756	-0.12193172
113	0xbe99b95d	-0.30024233
114	0xbe013430	-0.12617564
115	0xbd43d11b	-0.04780684
116	0xbe7b8e5a	-0.24566022
117	0x3e293fcb	0.16528241
118	0x3cb0d9aa	0.021588165
119	0xbc9d40e3	-0.01919598
120	0x3cb17d4e	0.021666195
121	0x3dbc58e5	0.09196643
122	0x3d8269e4	0.06367853
123	0xbdc24fb9	-0.09487862
124	0xbd842e40	-0.06454134
125	0x3e64bb95	0.22337182
126	0xbd31bbf2	-0.04339213
127	0xbd9c14db	-0.07621165
128	0xbe0fcf77	-0.14043985
129	0xbca9c672	-0.020724509
130	0xb9ee508f	-0.00045454918
131	0xbd710372	-0.058841176
132	0xbd998c2e	-0.0749744
133	0xbe9c5379	-0.30532435
134	0x3d92a7f2	0.07160939
135	0x3cf4dd1f	0.029890595
136	0x3ccdf976	0.025143366
137	0xbd262b33	-0.04056854
138	0x3db3c0a2	0.08776976
139	0x3d7b862f	0.061407264
140	0x3df6ca6c	0.12050328
141	0xbe166811	-0.14688136
142	0xbe35f720	-0.17770052
143	0x3d8f0ceb	0.06984886
144	0x3d411b82	0.047145374
145	0x3da9a06f	0.082825534
146	0x3e2a7dae	0.16649505
147	0x3e5cae27	0.21550809
148	0x3d2ebcc1	0.04266048
149	0x3d60da88	0.054895908
150	0x3db0f32a	0.0864013
151	0xbe0484bf	-0.12941264
152	0xbd719156	-0.058976494
153	0x3e21909e	0.15777823
154	0x3e0f3314	0.13984329
155	0x3bd64100	0.0065385103
156	0xbd6ba0b6	-0.057526313
157	0xbe0cfbb0	-0.13767886
158	0xbd0c620a	-0.034273185
159	0xbdb1fd00	-0.08690834
160	0xbdbd339f	-0.092383616
161	0xbe091bed	-0.13389559
162	0x3cfc3bed	0.030790294
163	0x3d6df86e	0.05809825
164	0x3e09351e	0.13399169
165	0x3dc0df2e	0.09417568
166	0x3df09a28	0.11748153
167	0xbe0a9a1f	-0.13535355
168	0xbda141f0	-0.07873905
169	0xbdfdcaea	-0.123922184
170	0xbdc46c11	-0.095909245
171	0xbb803a2d	-0.003913185
172	0x3d83188d	0.06401167
173	0x3e24e446	0.16102704
174	0x3e2f922a	0.17145601
175	0x3def5a68	0.116871655
176	0x3d766eb9	0.060164187
177	0x3df48730	0.119398475
178	0xbe106666	-0.14101562
179	0xbc954308	-0.01822044
180	0x3dafd68f	0.08585846
181	0x3e1fc913	0.15604047
182	0x3df0cf50	0.11758292
183	0x3d928dba	0.071559384
184	0xbdb73abc	-0.089467496
185	0xbe5032ec	-0.20331925
186	0xbd55d195	-0.052201826
187	0xbe3ae2f8	-0.18250644
188	0xbcdc7e05	-0.02691556
189	0xbcee93e3	-0.029123252
190	0xbde2985a	-0.11064215
191	0x3a5b010c	0.0008354343
192	0xbe81b51d	-0.2533349
193	0xbebc1c63	-0.36740407
194	0xbe54db67	-0.2078682
195	0xbe46b945	-0.19406612
196	0xbe23811d	-0.15967222
197	0xbdc8e629	-0.098095246
198	0xbb7fac7e	-0.0039012725
199	0x3e0ca1f6	0.13733658
200	0x3e2f46f8	0.17116916
201	0x3e057f65	0.13036878
202	0x3b324bd6	0.0027205846
203	0xbdb18151	-0.08667243
204	0xbdb83038	-0.08993572
205	0xbe2e9685	-0.17049606
206	0xbde67cf9	-0.112543054
207	0xbd3bf7ed	-0.045890737
208	0xbdb70589	-0.089366026
209	0x3e5ab556	0.21358237
210	0x3dd5f86c	0.10447773
211	0x3e33ed85	0.17571075
212	0x3e1c71be	0.15277764
213	0x3e62169f	0.22078942
214	0x3dc2bbf0	0.095085025
215	0xbe91f0c9	-0.28504017
216	0x3e79aeb1	0.24383046
217	0x3e2d5566	0.16927108
218	0xbe567ef1	-0.20946862
219	0xbb4b3ec6	-0.0031012758
220	0xbef8aa91	-0.48567632
221	0xbef785a2	-0.4834414
222	0xbea56161	-0.32300857
223	0xbe6717b9	-0.22567643
224	0x39c41e8d	0.00037406795
225	0x3ddb8b85	0.107199706
226	0x3ca433de	0.020044263
227	0x3df0830b	0.117437445
228	0x3d3bf0af	0.04588383
229	0x3c744279	0.014908426
230	0xbe564f05	-0.20928581
231	0xbe0c5733	-0.13705139
232	0xbd86d5e2	-0.06583764
233	0xbda71910	-0.08159077
234	0x3e0f7f50	0.1401341
235	0x3dacff66	0.08447151
236	0xbdd27a20	-0.102772
237	0xbda416ee	-0.08012186
238	0xbe7d6440	-0.24745274
239	0x3c1ae26c	0.009453397
240	0xbdf678e1	-0.120347746
241	0x3d38caf2	0.04511542
242	0x3e65c814	0.22439605
243	0x3beaf3ea	0.00717019
244	0x3ddd0b2e	0.10793148
245	0x3d8aa99f	0.06770634
246	0x3e27cf89	0.16387762
247	0x3e0fd15e	0.14044711
248	0xbbf0fb81	-0.0073542004
249	0xbd6bf32a	-0.057604946
250	0xbd753c78	-0.05987212
251	0xbdff678c	-0.12470922
252	0x3e0fd06c	0.1404435
253	0x3e3c8487	0.1840993
254	0xbb984b82	-0.004647673
255	0xbb6bdf9e	-0.003599144

conv2.bias f4 [32]
0	0xbdfe7b0b	-0.12425812
1	0xbe52cf70	-0.20586944
2	0x3e6e4899	0.23269881
3	0xbdffbd30	-0.124872565
4	0x3df4a36c	0.11945233
5	0x3dbb4112	0.091432706
6	0x3dc1208f	0.09430038
7	0xbdbdc881	-0.09266759
8	0x3cd11afd	0.025525564
9	0x3e156854	0.1459058
10	0x3e1b8484	0.1518727
11	0xbd5910b3	-0.05299444
12	0xbe5e7303	-0.21723561
13	0x3bd42cab	0.0064750514
14	0xbe124eba	-0.14287844
15	0xbe549a72	-0.20762041
16	0xbd2202e0	-0.039553523
17	0xbe1d10b7	-0.15338407
18	0xbe421c80	-0.18956184
19	0x3dfe1128	0.12405616
20	0xbcf4aa9d	-0.029866511
21	0xbdfd5987	-0.123705916
22	0xbe68a856	-0.22720465
23	0x3d9243a1	0.071418054
24	0xbc45d33b	-0.012074287
25	0x3e2bcd93	0.16777639
26	0xbe6d41de	-0.23169658
27	0x3e08172a	0.13290086
28	0xbcc88def	-0.024481742
29	0xbe705432	-0.23469618
30	0xbe360acd	-0.17777558
31	0xbe0739af	-0.13205598

fc1.weight f4 [26, 2048]
0	0xbc6f7162	-0.014614435
1	0x3cb4fecd	0.022094155
2	0x3d5ede16	0.054411016
3	0x3a8c8d82	0.0010723325
4	0xbd9b6b18	-0.07588786
5	0xbc7ca008	-0.015419014
6	0xba902505	-0.0010997361
7	0x3d2681a7	0.04065099
8	0xbd8b074a	-0.067885
9	0xbc62c4b0	-0.013840839
10	0xbd430dcd	-0.047620583
11	0x3c2aa42a	0.010415116
12	0x3d1e7f09	0.03869537
13	0x3c954099	0.01821928
14	0xbc4f4a00	-0.01265192
15	0x3d804d94	0.06264797
16	0xbd273b86	-0.04082825
17	0xbd70ddde	-0.05880534
18	0x3d595a46	0.053064607
19	0xbcd8705d	-0.026420766
20	0xbe0dbcd7	-0.13841568
21	0xbd3e5352	-0.04646618
22	0xbeda8cf2	-0.42685658
23	0xbd2299cc	-0.039697453
24	0x3c98d1a4	0.018654652
25	0xbd11dccc	-0.03561096
26	0xbd3ae393	-0.045627188
27	0x3c1533db	0.009106602
28	0xbd8f86a5	-0.07008103
29	0xbd1a2501	-0.037632946
30	0xbee6c576	-0.45072526
31	0xbe124b9f	-0.1428666
32	0x3d4656cc	0.04842262
33	0x3c468155	0.012115796
34	0xbbcf1456	-0.006319563
35	0x3bc90c9f	0.0061355378
36	0xbb74ce6f	-0.003735449
37	0xbd44f1d6	-0.048082195
38	0xbe69133a	-0.2276124
39	0x3cca98b1	0.024731012
40	0x3ccd2207	0.02504064
41	0xbcd212f1	-0.025643798
42	0xbd557c86	-0.052120708
43	0xbd82b073	-0.06381311
44	0xbd3cf358	-0.04613051
45	0xbdbf876e	-0.09352003
46	0xbe94f5c5	-0.29093757
47	0xbdaf96fb	-0.08573719
48	0xbcb0598d	-0.021527076
49	0xbda8021c	-0.08203527
50	0xbd06be95	-0.032896597
51	0xbd3adb4a	-0.045619287
52	0xbd45e1fd	-0.048311222
53	0xbbf28bf2	-0.0074019367
54	0xbecb3b77	-0.39693806
55	0xbe046031	-0.12927319
56	0xbc272733	-0.010202217
57	0x3ba4cea1	0.005029515
58	0x3c337c6a	0.010954956
59	0x3d3384d1	0.043827835
60	0x3cb6342a	0.02224167
61	0xbc125e6f	-0.008933648
62	0xbd9294c3	-0.0715728
63	0xbe673219	-0.22577704
64	0x3d035684	0.03206493
65	0x3c35f6f2	0.01110624
66	0xbb5b78ae	-0.0033488679
67	0x3b5e83f7	0.003395317
68	0x3dabc1eb	0.08386596
69	0x3d900ee0	0.07034087
70	0xbc103de5	-0.008803819
71	0xbdaf024b	-0.08545359
72	0x3c736c11	0.014857308
73	0x3c7b054c	0.015321087
74	0x3c798fe5	0.015232061
75	0x3c07048f	0.008240833
76	0xbb890c5d	-0.004182382
77	0x3cc230ed	0.02370497
78	0xbd2fd9b8	-0.042932242
79	0xbc6109e8	-0.013735272
80	0x3b6d8d42	0.0036247526
81	0xbddc5e00	-0.107601166
82	0xbd83cb09	-0.0643521
83	0x3e67a9e0	0.22623396
84	0x3dfcdddb	0.12347003
85	0x3d6b32e7	0.05742159
86	0x3df71874	0.12065211
87	0x3d507deb	0.050901335
88	0x3d2ffeda	0.042967655
89	0xbe535850	-0.20639157
90	0x3d2aabd8	0.04166779
91	0x3dd9ced1	0.1063515
92	0x3dc7fc87	0.09764963
93	0x3d9378c4	0.072007686
94	0x3d6622c6	0.056185506
95	0xbd4ac2a3	-0.049502026
96	0xbdf8536a	-0.12125285
97	0xbe32237a	-0.17396346
98	0xbdf2b641	-0.118511684
99	0xbda7a813	-0.081863545
100	0xbd231997	-0.039819326
101	0x3d7c988b	0.061668914
102	0x3cfad907	0.030621065
103	0x3cf15d4f	0.029463438
104	0xbe5ebcd8	-0.21751726
105	0xbe5eed47	-0.21770202
106	0xbeced217	-0.4039466
107	0xbda24a35	-0.0792431
108	0xbd713304	-0.058886543
109	0xbbcb5dcf	-0.006206251
110	0xbc47c206	-0.012192255
111	0xbdc17d7a	-0.09447761
112	0x3c1e00fa	0.0096437875
113	0xbee36d65	-0.444194
114	0x3ce1c556	0.027559917
115	0x3d4df771	0.050284807
116	0x3bc982d0	0.0061496273
117	0x3d11eae9	0.03562442
118	0x3c4902d4	0.012268741
119	0xbd9a0089	-0.07519633
120	0x3c8ad670	0.016947955
121	0xbc5e4c0d	-0.013567937
122	0xbc4b9249	-0.012425014
123	0x3cb80449	0.02246298
124	0x3c92eb61	0.017934503
125	0x3c7b27f6	0.015329352
126	0xbd77e8a3	-0.060524594
127	0xbe98e486	-0.2986185
128	0x3d5652ae	0.052324943
129	0x3debec2d	0.11519656
130	0x3d8c5899	0.06852836
131	0xbd8cca3a	-0.06874509
132	0xbd4ec4fa	-0.05048082
133	0xbee153b7	-0.44009182
134	0xbdf1e159	-0.1181056
135	0xbd956fc0	-0.07296705
136	0x3dc02927	0.09382849
137	0x3c033d53	0.008010226
138	0xbdc8a1e9	-0.09796507
139	0xbdcdf49f	-0.100564234
140	0xbd44b920	-0.04802811
141	0x3beeba2e	0.007285378
142	0xbc046cd2	-0.008082585
143	0x3affc011	0.0019512196
144	0x3e0ed39f	0.13947915
145	0x3e0ec43f	0.1394205
146	0x3c84a977	0.016194088
147	0xbeb46539	-0.35233477
148	0xbe83a6ab	-0.25713095
149	0xbe0271df	-0.12738751
150	0xbd0ec1f0	-0.034852922
151	0x3df0c45c	0.117562026
152	0x3e3187d1	0.17336966
153	0x3e0e21d8	0.13880098
154	0x3d065949	0.032799993
155	0x3dde8bf8	0.10866541
156	0x3a49bda4	0.00076958
157	0xbdc7c441	-0.09754229
158	0xbe4093ea	-0.18806425
159	0x3de7914c	0.1130701
160	0x3d80f885	0.06297401
161	0x3dae968d	0.08524809
162	0x3d93b5b5	0.07212392
163	0xbd697f5e	-0.057006232
164	0x3d729df4	0.059232667
165	0xbde2745e	-0.110573515
166	0xbd971eba	-0.073789075
167	0xbda2d9de	-0.07951711
168	0xbc843c2e	-0.016141977
169	0x3cb82054	0.022476353
170	0x3b9dfda9	0.0048214984
171	0xbe4aec07	-0.198166
172	0xbe8a218a	-0.26978713
173	0xbe71f167	-0.23627244
174	0xbe2aec7e	-0.16691777
175	0xbea45412	-0.3209539
176	0xbd40e7d8	-0.047096103
177	0xbd77efd4	-0.060531452
178	0xbcc6e638	-0.024279699
179	0x3d48cbb5	0.049022395
180	0x3df3906e	0.11892782
181	0xbe47eec5	-0.19524677
182	0xbe945edf	-0.2897863
183	0xbd4e27e2	-0.050331004
184	0xbda0e173	-0.07855501
185	0xbdd551fc	-0.10416028
186	0xbd3b2e10	-0.045698225
187	0xbe1041a2	-0.14087537
188	0xbe054a32	-0.13016585
189	0x3d12d954	0.03585179
190	0xbd87af4a	-0.066252306
191	0xbd272638	-0.040807933
192	0xbd237df0	-0.039915025
193	0xbe74c7e3	-0.23904376
194	0xbd8c6f82	-0.06857206
195	0xbdcccf67	-0.10000496
196	0xbcbc68d5	-0.022999207
197	0x3da73c84	0.08165839
198	0xbdb240cb	-0.087037645
199	0xbc86de16	-0.01646332
200	0x3e0e9dc8	0.13927376
201	0x3de49aee	0.11162363
202	0x3e0b2ea1	0.13592006
203	0x3e0d7bf3	0.13816814
204	0x3dcaf8e7	0.099107556
205	0x3d5fbac9	0.05462149
206	0xbd27dfeb	-0.04098503
207	0xbd99d937	-0.075121336
208	0x3deeffb4	0.11669865
209	0x3db2a183	0.08722212
210	0x3e239c29	0.15977539
211	0x3e110d18	0.14165151
212	0x3e09cd70	0.13457274
213	0x3e660623	0.22463278
214	0x3d08e65e	0.03342282
215	0xb960d816	-0.00021442803
216	0x3d098bd2	0.03358061
217	0x3d80672f	0.06269681
218	0x3d280a4b	0.04102544
219	0x3d5b4f82	0.05354262
220	0x3e1a3b06	0.15061578
221	0x3decf01c	0.11569235
222	0x3e0dae18	0.13835943
223	0x3d9e57b9	0.077315755
224	0x3d1eb502	0.03874684
225	0xbc9443ef	-0.0180988
226	0xbdec0175	-0.115237154
227	0x3d9c617b	0.076357804
228	0x3d41f7f8	0.047355622
229	0x3d807e6d	0.06274114
230	0x3d5499fa	0.051904656
231	0x3ba579c3	0.0050499155
232	0xbdde01e4	-0.10840204
233	0xbe555ed1	-0.20836951
234	0xbd708bd6	-0.058727108
235	0x3cad5d95	0.021162787
236	0x3dcbf03c	0.099579304
237	0x3deae873	0.114701174
238	0x3db077fe	0.08616637
239	0x3d6e4e11	0.05817992
240	0xbcd6166a	-0.026133735
241	0xbbaa2851	-0.0051927944
242	0xbd52e84e	-0.051491074
243	0xbd8dbb5e	-0.06920503
244	0x3cd84c40	0.026403546
245	0x3cec8a3a	0.028874505
246	0x3c373a58	0.011183344
247	0x3d350c72	0.044201322
248	0x3da7542e	0.08170353
249	0x3d2ff8cc	0.04296188
250	0x3c706255	0.014671882
251	0x3d22ebe3	0.03977574
252	0x3d958a18	0.0730173
253	0xbd0dbd89	-0.034604583
254	0xbcb12513	-0.021624124
255	0x3d2341ba	0.039857604

fc1.bias f4 [26]
0	0x3ba8f4c3	0.005156131
1	0xbc967131	-0.01836452
2	0xbd2194a0	-0.03944838
3	0x3ab28d50	0.0013622437
4	0xbb164520	-0.0022929385
5	0x3c1b1d04	0.009467367
6	0xbd351757	-0.04421171
7	0xbb203b3e	-0.0024449374
8	0x3d107179	0.035264466
9	0x3c0d0296	0.008606574
10	0xbb68b8b9	-0.0035510494
11	0xbcf6b548	-0.030115739
12	0xbbaa660e	-0.005200154
13	0xbd223de9	-0.039609823
14	0x3c09afa5	0.008403693
15	0xbc55a8a3	-0.013040694
16	0x3ac0af12	0.0014700613
17	0x3c860227	0.016358448
18	0xbb319311	-0.0027095715
19	0xbce17864	-0.027523227
20	0x3d1e53f9	0.0386543
21	0xbc0fe122	-0.008781703
22	0x3d12dcf5	0.035855252
23	0x3bd03729	0.006354232
24	0x3c80f3cb	0.01574125
25	0xbc9f8fb6	-0.019477706
