asl_mlp_model.pt (torch, 75549 bytes, 6 tensors)

net.0.weight f4 [128, 63]
000000 b2 fb 8a bc 05 e2 8d 3c 53 24 b7 bd 47 5e 48 3d
       -0.01696572 0.017319689 -0.08942475 0.048918035
000010 a5 0a a0 3e 23 0f af be ac 6b 84 be 81 93 18 3e
       0.3125812 -0.34191236 -0.25863397 0.14900018
000020 e4 48 5c be c5 76 7b bc 1b 1d 6a 3d a0 9d 9e 3d
       -0.2151218 -0.015348141 0.057156663 0.07744908
000030 3f e5 65 bd b3 a0 5d bd 80 bc d6 3d 8e 56 4e 3e
       -0.05612683 -0.054108333 0.10485172 0.20150205
000040 d5 e2 5f bd 88 df de be b9 28 3c be 2e 74 a4 3d
       -0.054659683 -0.43529916 -0.1837491 0.08029972
000050 17 8f c5 bc 62 cd bc bd 96 42 82 be 02 d4 ac 3d
       -0.024116082 -0.09218861 -0.25441426 0.08438875
000060 e8 9c a7 bd e4 6c 0c bf 9c d4 cd 3d bb 3b 31 3d
       -0.08184224 -0.54853654 0.10050318 0.043269854
000070 06 57 86 3d 3d 06 87 be ae a2 7a bd 75 80 bd bd
       0.06559567 -0.26371947 -0.0611903 -0.09253017
000080 69 7f 91 bd 3b 16 09 be 2c cd a3 be 42 8c d1 3d
       -0.0710438 -0.13387387 -0.3199247 0.1023183
000090 bb 52 ac 3d 31 30 18 bf 8e fe 05 bd 0e 1f 1f 3e
       0.08414217 -0.59448534 -0.032713465 0.1553919
0000a0 4d 8d 1f 3c c4 13 20 3e 3e 55 f9 3b 53 15 dc 3d
       0.009738279 0.1563254 0.0076090386 0.10746255
0000b0 a9 f1 d1 3d 9a fa b3 3d 77 58 7b 3e d2 92 8d be
       0.10251171 0.08788033 0.24545465 -0.27651078
0000c0 80 5e e3 b9 94 32 a1 3e b8 74 d1 be 0c 95 e9 3d
       -0.00043367222 0.314839 -0.40909362 0.114053816
0000d0 a2 a1 9d 3d 72 a9 b3 3e 57 3d f9 3d a6 c1 15 3e
       0.07696845 0.35090214 0.12169903 0.14624652
0000e0 ab 3a 00 3e e1 50 11 3e 8a 28 98 3d 8b 81 85 bd
       0.1252238 0.14191009 0.07429607 -0.06518849
0000f0 c0 79 65 3e ee 3b 09 3f 2d 39 73 be 4f 41 ba bb
       0.22409725 0.5360707 -0.2375228 -0.005684055
000100 f4 51 ee 3d b6 e5 c1 3d cb 06 cc bc 60 49 ed 3e
       0.11636725 0.09467642 -0.024905583 0.46345043
000110 5a e1 03 bf b5 48 bc 3d eb 99 87 3e 0c 40 95 be
       -0.51515734 0.09193555 0.26484618 -0.29150426
000120 72 10 0d be af f4 f9 3d 05 48 e9 bd 30 67 e4 be
       -0.13775805 0.12204873 -0.1139069 -0.44609976
000130 f8 df d3 3e 2f 54 a2 3c 76 66 e8 3e a7 f0 d8 3d
       0.41381812 0.019815532 0.45390671 0.10592776
000140 70 83 c2 3d 2b a6 cb 3d 3a 2f 62 bd 46 84 6a 3e
       0.09497726 0.099438034 -0.05522082 0.22902021
000150 81 b1 96 bd 8f 65 9a be 48 a8 6a 3e f6 d0 a5 be
       -0.07358075 -0.30155608 0.22915757 -0.32385987
000160 e1 b3 d1 be f1 fd 66 3e 8c ac d2 3e 19 7a d3 3d
       -0.4095755 0.22557808 0.41147268 0.10326023
000170 08 49 aa 3e 59 32 c2 3e 4c 72 ca bd 10 ef 75 bd
       0.33258843 0.37929037 -0.09885082 -0.06004244
000180 a2 8e 7b 3e d3 33 94 3e e2 7a 02 be d2 34 d1 bd
       0.24566129 0.2894579 -0.12742189 -0.10215153
000190 ef 01 0c 3f b1 a7 67 bd 41 01 91 3e 6f 0d 19 3e
       0.5469045 -0.056556407 0.2832127 0.14946531
0001a0 21 d5 0d 3f cc f0 3c 3e e6 cb 60 be 93 8f 08 3e
       0.55403334 0.18451232 -0.21952781 0.13336019
0001b0 70 79 85 3d 72 68 53 3c 20 d2 bc bd 3c b3 8b be
       0.06517303 0.01290332 -0.09219766 -0.27285182
0001c0 bb 99 9e 3e dd 04 3c be 3d 36 56 ba 6a e7 52 bd
       0.30976662 -0.1836123 -0.0008171534 -0.051490225
0001d0 e4 ee 43 3f e6 29 fb bd 2b 61 fd bd 6f be 85 3e
       0.76536393 -0.12263851 -0.12372049 0.26121852
0001e0 9a 66 b8 be e7 04 bc be 41 fb d4 bd 33 aa 26 bf
       -0.3601578 -0.3672249 -0.103994854 -0.65103453
0001f0 7e 14 d9 be 5b b7 dd be 34 4a 28 be 1d 1f f2 3d
       -0.42398447 -0.43303952 -0.16434556 0.11822341
000200 3d 3c 0d be 52 9c 2d be e0 49 2f 3e 66 70 90 3d
       -0.1379251 -0.16954163 0.17118025 0.07052688
000210 6b c7 fd bd 9b e4 17 3e 80 bc 1b be de 7c 21 be
       -0.123915516 0.148333 -0.15208626 -0.1577029
000220 ba ff a4 3e 88 22 ac bc 81 bc aa 3e 3e c3 ac 3e
       0.32226354 -0.02101256 0.33346942 0.33742708
000230 7f 4f 32 be 81 cc 09 3e ae 90 84 bd ce c0 d7 3d
       -0.17413138 0.13456918 -0.06472908 0.105348215
000240 70 d5 59 be 63 b1 71 bc 19 6c c9 3e a7 7d c4 be
       -0.21272826 -0.014751765 0.39340284 -0.38377115
000250 94 b2 9f be dc 28 84 3e 03 65 55 bf 09 5e de be
       -0.31190932 0.25812423 -0.83357257 -0.43431118
000260 51 ad bd 3d e0 51 e9 3d a0 7e 3b be 5f 4b 22 bd
       0.09261573 0.113925695 -0.18310022 -0.03962266
000270 26 bd fb 3e c3 15 89 3c 8e bc 94 3d dd 15 14 3f
       0.49167746 0.01673401 0.072625265 0.5784586
000280 ef 83 88 3e 92 f5 24 3e 26 be b6 3e ab 18 cb 3e
       0.26663157 0.16109303 0.35691947 0.39667258
000290 41 2b 93 3e 7b 45 76 37 a1 4a 66 be c0 56 b8 3d
       0.28743938 1.467892e-05 -0.22489406 0.09000921
0002a0 0f 16 92 3c 07 53 e8 be 98 43 bf bd d7 08 0e be
       0.017832784 -0.45375845 -0.09339064 -0.1387056
0002b0 04 1b ec bd 8d df 8d 3d 1d e8 bc be 9a 9e 76 3e
       -0.1152859 0.069274046 -0.36895838 0.24083939
0002c0 ad d0 a1 3d c1 f0 15 bd f9 09 6e bc 3c ec 45 bd
       0.0790113 -0.036606554 -0.014528745 -0.048320994
0002d0 5e e9 33 bd dd 9a 95 be ec 6b 7c be b2 23 03 be
       -0.04392373 -0.29219714 -0.24650544 -0.12806585
0002e0 51 0e f7 bc 76 26 83 be 3b c0 ae 3a 04 ac 01 3f
       -0.030158194 -0.2561528 0.0013332436 0.506531
0002f0 e9 ee 65 be a7 63 66 bc e6 82 f7 bd 2d df 14 3e
       -0.22454418 -0.014061845 -0.12085514 0.1453826
000300 bd 69 4f 3f ff 1d 50 be 40 d8 f7 3d f3 7f 38 3f
       0.8102072 -0.20323943 0.12101793 0.72070235
000310 64 9b 33 bd 14 40 47 3b ce 40 a8 3d fd d7 08 bd
       -0.043849364 0.0030403184 0.082154855 -0.033409107
000320 4a 57 61 bd 74 22 9a bf cb f7 11 3f 54 da 0e bd
       -0.055014886 -1.2041764 0.5701873 -0.034876183
000330 a3 d6 93 3e 54 3a d1 bd 86 53 ab 3e 25 1b 0e 3e
       0.28874692 -0.10216203 0.3346216 0.13877542
000340 8d 85 79 be 8c 61 42 3e bf 4e bf 3d ef 02 f2 3c
       -0.24367352 0.18982524 0.093411915 0.029542414
000350 c5 1e 82 3e 58 c0 34 be 42 92 30 be fd 47 2b 3e
       0.254141 -0.17651498 -0.17243293 0.1672668
000360 0e f7 80 bd 0a 0c 97 3d c3 1e 51 3e 72 51 0d 3e
       -0.06297122 0.07375343 0.20421891 0.138006
000370 7e 29 81 bd e8 fc 3d 3e 51 7a e5 3b c4 1b 24 bc
       -0.06306742 0.18553507 0.0070031066 -0.0100163855
000380 61 be 2b 3e ee f2 b7 bd 84 59 31 bd d6 2f 82 3e
       0.16771843 -0.08981882 -0.04329826 0.2542712
000390 65 f6 0e be 06 43 32 3d 4a 5f 8b bd 0b 67 37 3c
       -0.1396118 0.04352095 -0.06805284 0.011194001
0003a0 39 21 31 3d b6 05 17 be 24 33 bc 3c 56 28 77 bd
       0.043244574 -0.14748272 0.022973605 -0.0603412
0003b0 cb 6c 1c be f7 48 8c be 41 70 cf bd c7 05 7b be
       -0.15275876 -0.27399418 -0.101288326 -0.24513923
0003c0 dd 96 2d be 6e b8 16 3d 59 54 3a bd ed 07 e2 bc
       -0.16952081 0.03679698 -0.045490596 -0.02759167
0003d0 14 8a a8 bd fe ee c9 bd ae 4b c9 3e 8d 71 2e bd
       -0.08229461 -0.09860037 0.39315552 -0.04258876
0003e0 9c 2e fc bd ea 4d 89 3e cb 5d db 3d 7e 02 71 3c
       -0.123135775 0.26817256 0.10711249 0.014710067
0003f0 10 e5 32 bd 8f fa 8a 3d 42 51 01 3e ac 34 63 3e
       -0.043675482 0.067860715 0.12628654 0.22188061

net.0.bias f4 [128]
000000 85 41 92 be c8 3b 9f 3d 91 01 60 3d f6 b0 7b bd
       -0.28565612 0.07775074 0.054688994 -0.06144806
000010 f7 54 56 be aa 58 e0 3b 2a 32 b3 be c8 19 2b be
       -0.20930849 0.006846507 -0.3499921 -0.16709054
000020 9a b4 8f be b4 74 d5 bd 2f bb c7 be 9b bb 76 bd
       -0.28067476 -0.1042265 -0.39009997 -0.06023751
000030 6d 86 bc be 7f 12 05 bd 3a 29 87 3e e8 e6 34 be
       -0.3682131 -0.032488342 0.2639864 -0.17666209
000040 7b 3d 90 3c 50 17 ce bd 0f 31 f2 3d 82 80 09 3f
       0.017607441 -0.1006304 0.118257634 0.5371171
000050 41 95 c7 be 50 2f 07 be c0 bc f7 38 b4 3d 15 be
       -0.3898106 -0.13201642 0.00011813035 -0.14574319
000060 95 bd 4e 3e c6 8c b3 be 8d db 42 3d cc 36 03 bd
       0.20189507 -0.3506834 0.04757266 -0.03203468
000070 fc 1a e4 be a8 ce 05 bd f9 5d 42 be ce d8 49 be
       -0.44551837 -0.032667786 -0.1898116 -0.1971161
000080 22 14 98 bb b2 2d 51 3e 03 c7 5e bc 55 ac b1 be
       -0.004641072 0.20427588 -0.013597253 -0.3470179
000090 03 96 7a be 9f ff aa be 8e c4 7c be d2 64 99 be
       -0.24471287 -0.33398148 -0.24684355 -0.29959732
0000a0 c5 8a 9b be 65 1d 97 bd 09 3b d3 3e f6 1f 8e be
       -0.3037931 -0.073786534 0.41255978 -0.2775876
0000b0 e1 03 15 bf 7f c3 50 be 91 29 b8 3d b2 ff f5 bd
       -0.58209044 -0.20387076 0.08992303 -0.12011661
0000c0 f5 95 10 be 6f 97 d6 be 8f 55 b7 bd 4e 4e 82 be
       -0.14119704 -0.4191241 -0.08951866 -0.25450367
0000d0 50 79 d2 bc 50 19 75 bc 3c 94 22 be d7 93 cb be
       -0.025692612 -0.014959648 -0.1587686 -0.3976123
0000e0 b1 86 fe bd e7 d1 d0 3d df a5 3d be 38 1e 73 3e
       -0.12428034 0.10196286 -0.18520306 0.23741996
0000f0 c9 d4 6b be c5 a0 d0 be 2f 53 8e be b6 27 b3 be
       -0.2303039 -0.40747657 -0.2779784 -0.34991235
000100 55 18 c5 bd bb ed 8f be f8 88 94 3d 53 ed b1 be
       -0.096237816 -0.2811106 0.07252687 -0.34751377
000110 26 bf 13 bd 38 53 e2 bd e0 dc 2f be 87 fe 12 3d
       -0.036070965 -0.11051029 -0.17174101 0.035887267
000120 73 65 3c bd 25 45 ce be f6 c5 8c be 36 de c4 3c
       -0.045995187 -0.40287128 -0.27494782 0.02403174
000130 1d 0d a0 bc 23 b4 96 be b2 fd 6d 3e 5c 96 e1 bc
       -0.019537503 -0.29434308 0.23241308 -0.027537517
000140 b7 90 aa be 77 8b 29 3d 6c f2 d9 bd ab 68 85 3d
       -0.33313534 0.04139277 -0.106419414 0.065141045
000150 a2 9b f4 be 13 9c 8d be 09 13 ed 3b 06 43 25 3e
       -0.47774988 -0.27658138 0.007234935 0.16138849
000160 b2 dc dc bd f1 d3 9c be 99 c9 1b bc 07 2c fe 3d
       -0.10784282 -0.30630448 -0.009508514 0.12410741
000170 27 89 65 3e a9 bf e3 bd 8a d4 99 be 6b 15 a8 be
       0.224156 -0.11120541 -0.30044967 -0.3282884
000180 f6 c3 9a bd 83 b4 bd be aa 40 03 be 4f 90 56 3e
       -0.07556908 -0.37051782 -0.12817636 0.20953487
000190 f3 a8 be bd b2 f9 57 be a5 d1 76 be e0 05 99 be
       -0.09309568 -0.21091345 -0.2410341 -0.29887295
0001a0 f6 3f 46 be b5 68 a9 bd 7b f6 1d be 79 24 07 bd
       -0.19360337 -0.082719244 -0.15426056 -0.032993767
0001b0 f3 71 ab be 82 c8 0e 3e 42 db c3 be 27 d7 40 be
       -0.33485374 0.13943675 -0.38253218 -0.18832074
0001c0 2a 9e b6 be e9 48 b0 be 0f 8f c3 be 9e 43 8b be
       -0.35667545 -0.34430626 -0.38195083 -0.27200025
0001d0 a1 e9 cc 3d f7 11 bd be 6f ab d8 bb 36 15 4f 3e
       0.10005499 -0.3692777 -0.0066122334 0.20222935
0001e0 36 2f 81 be 3c 21 91 3b 53 56 14 be d1 47 2d 3e
       -0.25231332 0.0044290107 -0.14486055 0.16921927
0001f0 61 03 0d bf d8 f3 05 bd 23 89 a2 be 4a 31 6b bb
       -0.5508328 -0.03270325 -0.31745252 -0.0035887533

net.3.weight f4 [64, 128]
000000 88 b9 ec 3d 9b b6 fe be 4c eb c8 3b f9 c8 e9 3e
       0.11558825 -0.49748692 0.006131565 0.45661142
000010 d0 a1 e6 3d 1b cc 65 3e 98 18 a8 bc ed 2f 96 bd
       0.11261332 0.22441141 -0.02051954 -0.0733336
000020 65 55 82 be 5a fc 83 bd 94 a6 25 3f 8a 63 28 3f
       -0.25455776 -0.064446166 0.64707303 0.65776885
000030 fd 49 c4 3e 0c e3 3d be 31 30 11 3e b9 60 0b 3d
       0.383377 -0.18543643 0.1417854 0.03402779
000040 a6 82 a9 bd c8 d2 f3 bc 57 d9 14 3f 14 c5 b1 bd
       -0.08276872 -0.029763594 0.58144134 -0.08680168
000050 93 22 52 3c c9 1c b6 3e de c4 0c bd c3 95 6a 3d
       0.012825626 0.35568836 -0.034367435 0.05727173
000060 84 58 5a be 08 05 a9 3e 6e 60 67 be 2a da 23 be
       -0.21322829 0.3301165 -0.22595379 -0.16001192
000070 ad 86 d5 bc 66 d1 3a 3f bf 89 14 be 16 f0 b5 be
       -0.026065195 0.72975767 -0.14505671 -0.35534734
000080 6d 8b 2e 3e 0b 12 27 bf b7 0e 08 bf 5c 48 65 3d
       0.17045374 -0.65261906 -0.53147453 0.05597721
000090 7b 79 f4 bc d8 b4 68 be 0a 6a 36 3c e0 e1 14 3f
       -0.029843083 -0.22725236 0.01113368 0.5815716
0000a0 88 1e 30 bd c5 05 d1 be 59 ae 39 bf 9c c1 73 3e
       -0.042997867 -0.40824714 -0.7253166 0.23804325
0000b0 4b 67 2a be 36 60 7b 3e 84 ed f1 bd 9c 64 24 3e
       -0.16640966 0.2454842 -0.11812881 0.16054004
0000c0 35 f4 ad 3e 15 64 b0 bd c0 21 d8 bd cc a7 15 bd
       0.33975378 -0.08612839 -0.10553312 -0.036536977
0000d0 08 16 79 3e f7 fc dd 3e cc ee 87 3e 25 67 a2 3e
       0.2432481 0.4335706 0.26549375 0.31719318
0000e0 7b 28 60 be e9 5a f5 bd e0 a3 0d 3c 4c 1c 9d be
       -0.21890442 -0.1198023 0.008645028 -0.3068565
0000f0 ae d5 7a 3d 81 97 84 bc 13 3e e7 bc d4 29 8a 3f
       0.061238937 -0.016185524 -0.028227841 1.0794015
000100 30 fc 96 3d 6f 8b 85 bd f7 2b 2a bf 52 98 ff 3e
       0.0737232 -0.065207355 -0.66473335 0.499209
000110 87 ae 25 be ca 05 62 3e 6b c1 a1 3e f1 e8 b4 be
       -0.16179858 0.22072521 0.3159288 -0.3533397
000120 19 69 fe 3c 00 a2 28 3c b1 30 f8 3d e3 f6 16 3e
       0.031055974 0.01029253 0.12118662 0.14742617
000130 28 0b 80 bb 79 15 7d 3d 09 17 51 be 17 7e 9f 3d
       -0.00390758 0.061788056 -0.20418943 0.077877216
000140 37 76 2a 3e 8c 46 88 3e 20 cb 9e 3c a8 08 4c bf
       0.16646658 0.26616323 0.019383967 -0.7970071
000150 af ff 8f 3d 26 20 be bd 32 bf 44 3e 6b 1a d0 b8
       0.0703119 -0.092834756 0.1921356 -9.9231336e-05
000160 0f 8d bb 3e 5f 06 d1 3d 42 59 8f bc fa 48 a1 be
       0.36631057 0.10206293 -0.017498616 -0.3150099
000170 c6 82 18 3e 02 56 a8 bd 16 50 d4 3e b4 89 bd 3e
       0.14893636 -0.0821953 0.4146735 0.37019122
000180 7b 72 49 3f 1d 90 02 3e 54 01 31 be f7 e1 f0 be
       0.7869031 0.12750287 -0.17285663 -0.47047397
000190 47 70 0b 3e dc 67 a2 3e dd 5f 3e be 23 d0 bc 3e
       0.13617049 0.31719863 -0.18591256 0.36877546
0001a0 9b 5a 6f be 2d 51 19 3e da 38 65 3e 52 75 cc be
       -0.23374407 0.14972372 0.22384968 -0.39933258
0001b0 0e a6 04 3b 52 8f ba bd fb 0c 1e 3d b0 c4 b8 3d
       0.0020240578 -0.091093674 0.038586598 0.0902189
0001c0 1a e6 bd 3d ff 1c 12 bd 30 72 29 be 5a 80 2d 3f
       0.09272404 -0.035672184 -0.16547465 0.67773974
0001d0 6e 10 08 be 71 8d bb bd 1f e6 6a 38 94 a7 00 be
       -0.13287517 -0.09157837 5.6004264e-05 -0.12563926
0001e0 a9 b7 ad bc 9b 0c 47 bd fb 9f 84 3d 4a fc 24 bf
       -0.02120574 -0.048596006 0.06475826 -0.6444746
0001f0 1c 7c bc bc f9 e0 0b 3d 08 24 80 bd d5 4a e2 be
       -0.023008399 0.034150098 -0.062568724 -0.44197717
000200 8b b9 ad 3d 69 de 23 bf 1f 61 53 bf 75 c7 d9 3d
       0.08482655 -0.64011246 -0.8257007 0.106337465
000210 36 e8 85 bd 27 02 a1 3d ad 87 f6 3e df 4d 67 3d
       -0.06538431 0.07861739 0.48150387 0.056470748
000220 85 ab a9 3e e1 77 97 be a4 dd 96 3e 85 cd 7d 3d
       0.33138672 -0.29583648 0.29465973 0.061963577
000230 47 64 59 3e a2 14 ae bd e8 39 7a 3d 29 f0 b8 3d
       0.21229659 -0.08500029 0.06109038 0.09030182
000240 49 b1 a9 3e 11 8c 89 bd f0 65 a9 3d bf bc 73 be
       0.3314307 -0.06716169 0.08271396 -0.2380247
000250 e8 4c 04 be 29 63 07 be fd 81 0f bf 20 8a 5f bf
       -0.12919962 -0.1322142 -0.5605772 -0.8732014
000260 ec 5f 46 be 4a e6 fb bd 34 9e c9 3d e9 ef c8 3d
       -0.19372529 -0.122997835 0.09844628 0.09811384
000270 00 7c 43 3e d0 5a 16 3e a7 53 e1 bd a7 eb e3 3d
       0.19090271 0.1468308 -0.110022835 0.111289315
000280 3e 4d 93 3e 89 1c b9 3e 44 7a 01 3f b6 8f 9b 3e
       0.2876987 0.36154583 0.5057719 0.3038308
000290 94 42 a8 3e c5 c3 d5 3e a8 01 14 3f f7 4e 08 3e
       0.32863295 0.41750923 0.5781503 0.13311373
0002a0 99 e6 95 bb ed d6 05 3f a3 7e 9f be de 56 6f be
       -0.0045746085 0.52281076 -0.31151304 -0.23372981
0002b0 93 4b 25 be 0c fc dd 3e 23 ef 64 bf 09 58 d0 bd
       -0.1614211 0.4335636 -0.89427394 -0.101730414
0002c0 43 bc db 3e 3d c2 c8 3d 8f 22 f3 3e 3f a1 ec bd
       0.4291707 0.09802673 0.47487304 -0.11554193
0002d0 26 f7 b3 be c7 78 97 3d 4d 27 c1 3d 09 00 ee be
       -0.35149497 0.07396083 0.09431324 -0.46484402
0002e0 15 2d c2 3e 80 81 e2 be d7 85 c8 be ad 21 74 3e
       0.3792502 -0.44239426 -0.39164612 0.23840971
0002f0 43 a4 93 bf c0 26 0e 3f 9d 38 e9 3c a2 6a 38 3d
       -1.1534504 0.5552788 0.028469378 0.045023568
000300 22 19 a6 3e d7 9e 0a 3e bd e6 e9 be 87 88 01 3d
       0.3244105 0.13537155 -0.45683852 0.031624343
000310 23 cf ec 3e 1c 69 0d 3e f7 6b af 3c 01 4f 26 be
       0.46251783 0.13809627 0.021413786 -0.16241075
000320 cc 29 e0 bd 4d a2 29 3e fc c4 41 3d 1d dc 27 3e
       -0.10945472 0.16565819 0.047307 0.1639256
000330 67 52 fb 3e 6b b7 37 3e c9 f3 73 3d 0d 8b 03 3c
       0.49086305 0.17941062 0.059558664 0.008028758
000340 c7 72 d1 3d 42 0d c1 be 2c dd a8 bd a5 f5 2d 3e
       0.1022697 -0.37705427 -0.0824531 0.16988237
000350 bc 6b 50 3f 9b 28 d7 bd 8f d7 8c 3e b3 18 2b 3f
       0.8141439 -0.10505792 0.27508208 0.66834563
000360 b9 17 96 3d dc b0 05 be 55 ce 66 bf 5f d3 b4 be
       0.073287435 -0.13055748 -0.9015859 -0.35317513
000370 c6 5d cf be 0b c2 eb be 57 f8 85 be 32 c4 49 be
       -0.4050123 -0.4604648 -0.2616603 -0.19703749
000380 c5 c5 8a 3d 5d aa ed be 39 93 35 3e 59 fa 13 bf
       0.06776003 -0.4641904 0.17731942 -0.57803875
000390 a9 62 8a be 0e d9 ed be c1 94 e6 3d 38 46 73 3e
       -0.27028397 -0.46454662 0.11258841 0.23757255
0003a0 ee b7 1a 3d b1 40 2b 3e ed 01 2a 3e 15 6b c5 bd
       0.037773065 0.16723897 0.16602297 -0.09639565
0003b0 8b 90 7c 3e cd bc 9b ba 2b 15 dc bd 79 95 0a be
       0.24664514 -0.0011881829 -0.10746225 -0.13533582
0003c0 fb 63 18 3f 29 8a ef 3e 95 40 10 3f 2f f9 79 3c
       0.5952756 0.46785095 0.56348544 0.015257164
0003d0 41 88 24 bf 93 cc 09 3e 79 a9 32 bf 06 a2 b0 3d
       -0.64270407 0.13456945 -0.69789845 0.086246535
0003e0 cc ee 81 be 93 f5 af bd a2 27 ae 3e da 02 da bc
       -0.253775 -0.085917614 0.34014612 -0.026612688
0003f0 9c b9 db 3d c5 22 a2 bf d9 9e 89 bc 30 79 45 3e
       0.107287616 -1.2666861 -0.016799377 0.1928451

net.3.bias f4 [64]
000000 df 39 e9 3d 0d ec 4d be d7 07 3d 3e fd 7f ce be
       0.11387991 -0.20109577 0.18460022 -0.40332022
000010 97 8b 83 3e a3 89 87 3d 25 0e 50 3e 6b a8 d7 bd
       0.25692436 0.06618049 0.20317896 -0.1053017
000020 57 7c 96 3e 10 8a e4 3e 39 4c e3 3c c6 94 7e be
       0.2939174 0.44636583 0.027746307 -0.2486144
000030 46 c8 00 bf 4c be 5f be 2d 80 06 be f0 4a ff 3d
       -0.50305593 -0.21849936 -0.13134833 0.12465465
000040 54 6d 2c 3e c6 d2 df be 46 45 94 3e 88 f9 96 3d
       0.1683858 -0.43715495 0.289591 0.07371813
000050 6f 5f 8f be d5 87 4e be a4 d4 9f be 01 1c 3d be
       -0.28002498 -0.20169003 -0.3121692 -0.18467714
000060 9c 3b 76 3e 84 1d 18 3f e3 e1 3c 3e c0 a3 81 be
       0.24046177 0.5942004 0.18445544 -0.25320244
000070 1d b5 e6 3d 07 21 c8 3e c8 82 75 3e 4f 94 fc 3d
       0.11265013 0.39087698 0.2397567 0.12332975
000080 01 c5 04 3e 26 e5 1c 3e a8 9e a4 3e c4 8c ca be
       0.12965776 0.15321788 0.32152295 -0.3956052
000090 a1 1a 4e 3d 70 48 fb 3e 6c 9d 9f bd 0d 85 33 be
       0.050318364 0.49078703 -0.07793698 -0.17531224
0000a0 70 be f1 3d 77 b5 32 bd 75 13 e9 3d ae e1 bf 3e
       0.11803901 -0.04363009 0.11380664 0.37476867
0000b0 1c ca d7 3e 9f 85 aa 3d 56 3b c3 3c ff 3a 20 3e
       0.42146385 0.083262675 0.023832005 0.15647505
0000c0 a4 91 6e 3e fc c5 b5 3e 93 cb 21 3e 8c e2 ea 3e
       0.23297745 0.35502613 0.15800314 0.45875967
0000d0 9f de 4f bd dc 7a 01 bd 42 4b 9e 3e 4e 3e 5e 3e
       -0.050749417 -0.03161131 0.30916792 0.21703455
0000e0 af 90 94 3e cd 32 ba 3e c6 39 42 be 00 49 6d 3d
       0.29016635 0.36366883 -0.18967351 0.057930946
0000f0 9c 55 d6 3d 44 85 9b 3e 2e a3 f7 be 40 bc 3c be
       0.104655474 0.3037511 -0.48366684 -0.18431187

net.6.weight f4 [24, 64]
000000 36 34 f5 3d 8f d6 1a 3e f6 0b db bf b6 3e 21 3e
       0.11972849 0.1512091 -1.7113025 0.15746579
000010 e6 d6 5b 3d b1 fb a3 bf 9b c3 70 bf 03 88 28 3e
       0.05367174 -1.2811185 -0.9404847 0.16458134
000020 d6 75 39 3e 72 e2 a7 3d db a4 b2 bf dd 4f ba 3d
       0.18111357 0.08197488 -1.395656 0.09097264
000030 99 4f bf 3d 1a 23 2a 3e ea d3 9a 3e d7 8a c0 be
       0.09341354 0.16614953 0.30239803 -0.37605926
000040 b7 a4 4d 3e 6b bb eb 3d 39 04 15 bf 82 83 e1 3d
       0.20082365 0.115103565 -0.5820957 0.11011411
000050 b0 a0 0d 3e 6b 7a 2a 3e 27 9d 35 3e 8e 7f b9 bf
       0.13830829 0.16648261 0.1773573 -1.4492052
000060 56 5e 9c bf 9a 12 0e 3f bc 71 d4 3e 1f 45 35 3e
       -1.2216289 0.55497134 0.41493022 0.17702149
000070 bf ec 5d bd 3b aa ee bf 34 93 53 3d c1 ad 12 3e
       -0.054180857 -1.86457 0.051654056 0.14324094
000080 c8 b3 65 bf 97 55 a2 bd 57 84 16 3e 05 77 3b 3e
       -0.8972745 -0.07926481 0.14698921 0.18307121
000090 f5 6c 87 3c 77 94 03 c0 84 6f d7 bd 60 98 92 bf
       0.016531447 -2.0559366 -0.10519317 -1.1452751
0000a0 67 ea 1f 3e a0 f6 72 bf 47 f6 fe 3e c7 0d 9e bf
       0.15616761 -0.9490757 0.4979727 -1.2347955
0000b0 50 67 87 bf 9f f4 18 bf 57 9d 4f bf 45 5f 5c bf
       -1.0578403 -0.5974826 -0.81099457 -0.8608287
0000c0 1f 0c 46 bf 65 f5 15 3e 5e 0b a7 bf ea 3e cc 3d
       -0.77362245 0.14644392 -1.3050344 0.099729374
0000d0 5e 2a 9f 3d 3b 3a fc be 95 b8 68 bf 97 fb c6 bb
       0.07771753 -0.49263176 -0.9090665 -0.0060724723
0000e0 30 7e 31 bf fc 8b ea 3d fd 7f 45 3e a4 3c 13 3e
       -0.6933317 0.11452481 0.19287105 0.14378601
0000f0 2b 60 b3 bd 41 83 d9 3d fe 4f 97 bd 1f 47 96 3d
       -0.08758577 0.10620738 -0.07388304 0.07337784
000100 7f df 44 bf 87 e5 9f bf 01 5f a1 bf fe ee c9 bf
       -0.7690353 -1.2491921 -1.2607118 -1.577606
000110 e1 2c 89 bc dd c8 eb 3d 19 23 cf 3e cd dc 62 bf
       -0.016745033 0.11512921 0.40456465 -0.88618165
000120 f8 97 82 bf 4a cf b5 be 39 e0 0b 3c 8b 08 81 3e
       -1.0202627 -0.35509712 0.008537346 0.2520183
000130 9d 1c 6c 3c 4c 69 82 bf b0 24 73 bf e8 b8 d1 bd
       0.014411119 -1.0188384 -0.94977856 -0.10240346
000140 eb 43 b9 bf 20 d3 81 bf 95 75 e0 3e bf 8b 73 bf
       -1.4473852 -1.0142555 0.43839708 -0.9513511
000150 21 91 80 3b 90 02 78 bf cb a1 b3 bf 34 ae 80 3d
       0.0039235507 -0.9687891 -1.403375 0.062832266
000160 a2 cf 0e 3e 02 68 69 bf 4f 13 3d 3e 67 ac 72 bf
       0.13946393 -0.9117433 0.18464397 -0.94794315
000170 38 e8 c2 be 8c b6 6c 3e 43 7c e2 bf 37 1a c0 bf
       -0.38067794 0.23116511 -1.7694172 -1.5008
000180 58 2e b3 bf 59 b1 73 bf 9e da 88 bf 82 75 8a bf
       -1.3998518 -0.95192486 -1.0691717 -1.081711
000190 31 0a cd bf 68 ca 11 3e ce c6 c1 3e 27 1b 35 3e
       -1.6018735 0.14237368 0.37846988 0.17686139
0001a0 f5 1e c7 bf b0 e6 3f 3e f0 dc 0f 3e 5d f8 53 3e
       -1.5556322 0.18740344 0.14049125 0.20700212
0001b0 77 a2 9e 3e c8 03 76 bf 66 b6 65 bf 6b 8d c1 3e
       0.30983326 -0.9609952 -0.8973144 0.37803206
0001c0 7b 6b fe 3d a4 b1 82 bf 12 6d 9f 3e 15 e8 65 bd
       0.12422844 -1.0210462 0.31137902 -0.056129534
0001d0 6b 2f af bf 44 ef 8f 3e 73 30 7b bf 77 04 08 bf
       -1.3686346 0.28112233 -0.981208 -0.5313181
0001e0 8f b5 b3 3e 55 34 a5 3e 7a 10 af bf ed ac 58 bf
       0.35099456 0.3226649 -1.3676903 -0.84638864
0001f0 01 22 a1 3d e6 a6 8e bf f8 6d b9 3d de 4d 21 bf
       0.07867814 -1.1144683 0.09054178 -0.6300944
000200 09 44 aa bf 89 56 05 3c 35 eb 58 bf 76 93 88 be
       -1.3302013 0.008138307 -0.847339 -0.26675004
000210 12 b5 ad 3e a1 b4 b3 3e 46 0e 8f 3e bb 77 c8 be
       0.33927208 0.35098746 0.27940577 -0.39153847
000220 c5 ed b1 bf 5b 22 b5 be 5a 4b ee be c2 6b 92 be
       -1.3900687 -0.35377774 -0.46541864 -0.28597838
000230 2b 63 e4 3d 7f b3 47 bf 7b d8 1a bf 87 0f ae 3e
       0.11151727 -0.78008264 -0.60486573 0.3399622
000240 31 dd bd 3e ad ab 9b bf 0a 51 69 be a2 8f 06 3e
       0.37082818 -1.2161766 -0.2278482 0.13140729
000250 71 a7 97 3e ab a3 e4 3d c3 ad 1f be 6d a0 68 be
       0.29619935 0.1116403 -0.15593629 -0.22717448
000260 15 5f 2a bf 0d 2a bb 3e 47 7e 8e 3e 21 db 72 bf
       -0.66551334 0.3655552 0.27830717 -0.94865614
000270 9a 1c 34 39 25 5d b1 bf 55 37 c9 be 43 33 be 3e
       0.00017176793 -1.385655 -0.39300027 0.37148485
000280 33 8d 5a bf de 8a 58 3e 4e 8e 5e bf 15 04 89 3e
       -0.853717 0.21146724 -0.8693589 0.26760927
000290 eb 50 8f 3e 0e 7d b4 bf 1f 42 9a 3e 89 74 66 3e
       0.27991423 -1.4100664 0.3012857 0.22505392
0002a0 0f f9 8b bf fd f6 a5 3e 81 77 83 3d 6c 78 5b bf
       -1.0935382 0.32415 0.06419278 -0.85730624
0002b0 ba 58 b6 bf c6 0a 92 3e 11 24 0d bf 66 09 b3 bf
       -1.4245827 0.28523844 -0.5513316 -1.3987243
0002c0 15 1e 3c 3e bc bb 5c bd b8 bc 61 bf 1a a4 41 3e
       0.1837085 -0.053889975 -0.88178587 0.18910256
0002d0 1f 73 7d bf 7e 47 37 3e dd 04 83 3e b6 c3 6f 3d
       -0.99003786 0.17898366 0.25589648 0.058536254
0002e0 fe ee 57 bf 4d 6b 51 3e ac 59 49 3e d9 b6 3d bf
       -0.8434905 0.20451088 0.19663113 -0.7410713
0002f0 df 07 76 3e f5 d2 f9 bd 74 0f 44 bf 32 b2 08 bf
       0.2402644 -0.1219844 -0.7658608 -0.53396904
000300 43 91 a7 be b7 f1 ef bd 48 d6 9b bb 74 de b9 bf
       -0.32728013 -0.11716025 -0.004755769 -1.4521012
000310 96 bb 08 3d 9d c1 69 3e ee db 89 3e 4d 5d 33 3d
       0.03338202 0.22827764 0.26925606 0.04379015
000320 d2 2e 31 be 36 5c a1 bd e8 fb 01 3f ea 16 cd be
       -0.17303017 -0.07878916 0.50775003 -0.40056545
000330 9f e5 42 bd dd 67 80 be 4a 1e 8d bd a4 ea 93 3e
       -0.047582265 -0.2507924 -0.06890543 0.28889954
000340 10 59 99 be 29 6f 3c bf a3 77 01 3e b8 2c 23 bf
       -0.29950762 -0.73607117 0.12643294 -0.6374011
000350 76 e3 12 3e 8d 1e 9a 3c 11 de a2 3d b2 e8 53 bf
       0.14344582 0.018813396 0.07952512 -0.8277694
000360 f6 1e 91 3e 33 91 1d bf e6 13 22 3e ac 09 f8 3d
       0.28343934 -0.6154968 0.15827903 0.1211122
000370 a4 2a 11 bf 83 ad 94 bf 7e 8f c9 bf 0e 16 a8 3e
       -0.5670569 -1.1615452 -1.5746915 0.32829326
000380 3c 7a 1e 3e 66 24 44 3c 33 0d c4 3e 32 f5 ed be
       0.15476316 0.011971569 0.3829132 -0.46476132
000390 d2 b5 57 3e ab a2 9b bf eb a8 ee 3d 95 64 b9 bd
       0.21065453 -1.2159017 0.11653312 -0.090523876
0003a0 25 7d 46 3e 8e 0e 4a 3e 46 de 2a bf 94 ca 74 be
       0.19383676 0.19732115 -0.6674541 -0.23905402
0003b0 fd 18 cd be 3c 96 ff 3d 2a 0f 47 3e fd b5 8c 3d
       -0.40058127 0.12479827 0.19439378 0.06870649
0003c0 c7 8e a2 3e 4a 48 17 3f 7e 74 0a bf e5 50 ed bd
       0.31749555 0.5909468 -0.54084 -0.11587695
0003d0 3c c9 bd 3d a9 72 9b be 34 2f 3c bd 11 21 bd be
       0.09266898 -0.30360916 -0.045943454 -0.3693929
0003e0 ff 06 e8 3e 08 75 76 3e f3 c2 86 bf c6 24 88 3e
       0.45317838 0.24068081 -1.0528244 0.26590556
0003f0 3e 5a 43 3e c1 2d ce bf b1 71 76 bf 74 54 1d 3e
       0.19077393 -1.6107713 -0.9626723 0.15364248

net.6.bias f4 [24]
000000 b5 c0 7f bd 58 e4 d3 3e 23 d0 56 3e 0e 15 96 3e
       -0.06243964 0.4138515 0.20977835 0.29312938
000010 5a 15 0a bf 65 45 c8 3e 7b 6a ef be c1 bd e9 be
       -0.5393883 0.39115444 -0.46760926 -0.45652583
000020 71 2d 09 3f a1 b3 45 3d fd d8 d8 3e 34 25 40 3f
       0.53584963 0.04826701 0.4235305 0.7505677
000030 9e 02 c0 be 13 c1 cb 3d 84 c4 81 be 45 eb 93 3e
       -0.37501997 0.09948935 -0.25345242 0.28890434
000040 29 14 2b 3e 34 c3 dc be 01 7a 6d bf f1 8d 40 3e
       0.16706909 -0.43117678 -0.9276429 0.18804146
000050 63 b3 25 bd fb bb 89 3d e3 15 9a be b9 99 2e bf
       -0.04045428 0.067253076 -0.30094823 -0.6820331
